nbs/models/hot-model-2.pth (torch, 32259 bytes, 62 tensors)

layers.0.weight f4 [10, 15]
000000 be d1 52 be c5 a0 52 be ca f4 54 3e aa a5 e5 bd
       -0.20587823 -0.20569141 0.20796505 -0.112132385
000010 44 76 f9 bc 6e a4 5f 3e 23 2e d4 bc b0 a9 a7 3c
       -0.030451901 0.21840069 -0.025900906 0.020466655
000020 99 eb 5b be 3a 1a 5c 3e a9 72 70 be 2b 7a d7 3d
       -0.21476592 0.2149438 -0.2348124 0.105213486
000030 6a 04 b5 bb 8a ee bf bd 8d 0a 1d bd 5f 6e 83 be
       -0.005524208 -0.093716696 -0.03834014 -0.25670144
000040 15 cd 1e be 14 e7 31 3e e5 9a 52 3e 52 45 12 3e
       -0.1550792 0.17373306 0.205669 0.14284256
000050 96 02 da bd 78 b3 42 bd d0 17 78 3d 51 77 64 be
       -0.106450245 -0.047534436 0.060569584 -0.2231114
000060 b0 80 90 be a7 b5 82 be 98 2d 3a 3e da b7 e9 3d
       -0.2822318 -0.25529215 0.18181455 0.1141202
000070 76 2b 9b bd 4e 5d 1b bc 99 6f 4b bc 23 c6 73 3b
       -0.07576649 -0.009482695 -0.012416744 0.0037196956
000080 8d 04 fa 3c 76 e2 c5 3d b9 5d 0c 3d e9 dc 98 bd
       0.030519748 0.096623346 0.03426907 -0.0746401
000090 95 ca b1 3d 65 cb 55 3e 9c cc 54 bd ab 4e f4 3d
       0.086812176 0.2087837 -0.051952943 0.11929067
0000a0 e6 01 62 be 9b 15 6f be 9e 5c 8e be c9 77 c2 3d
       -0.22071037 -0.23348086 -0.27805036 0.094955035
0000b0 73 dd 15 be 20 01 10 3e 94 2f 6b 3d f6 c5 57 3d
       -0.14635257 0.14062929 0.05741842 0.052679025
0000c0 59 ec 6c be c1 44 3f 3e ac 09 92 be 23 e6 05 be
       -0.23137034 0.18678571 -0.28523004 -0.13076071
0000d0 e4 73 45 bd ff 59 ad 3d 04 9e 06 bd 63 41 9e be
       -0.048206225 0.08464431 -0.03286554 -0.3090926
0000e0 8e 90 b1 bd 97 3c f1 bd 0b 13 68 3e 85 0b 24 3d
       -0.0867015 -0.11779135 0.22663514 0.04005005
0000f0 e8 16 17 3e 5e 5d 0c be d0 66 0c 3e c8 a7 be bd
       0.14754832 -0.13707492 0.13711095 -0.093093455
000100 4f 73 3d 3d c9 91 d6 3d 85 ad 8a 3e a4 a2 37 3e
       0.046252545 0.10477025 0.2708551 0.17933136
000110 c7 be a9 bd df 7e 64 3e 89 38 f9 3d c4 9d f0 bd
       -0.08288341 0.22314022 0.12168986 -0.117488414
000120 52 76 27 be 21 cb 0b 3e 31 d8 b0 bd 12 57 22 be
       -0.1635373 0.13651706 -0.08634985 -0.15853527
000130 4e e4 5f bd f8 8c 0a 3e 3b 82 78 be 7c fd 02 3e
       -0.054661088 0.13530338 -0.24268429 0.12792009
000140 ea 89 03 3d 59 39 1a 3e ba 41 9f bd 35 54 e5 bd
       0.032113947 0.15060939 -0.07776208 -0.11197702
000150 9f da 41 3e 1a 98 11 be fb e9 47 3d e4 7a 72 bc
       0.18931054 -0.14218178 0.048807126 -0.014799807
000160 cf 9e 50 be f7 36 3f 3e e7 54 6f be 73 0e 1b 3d
       -0.2037308 0.18673311 -0.23372231 0.037855577
000170 59 8e 29 bd d5 d3 84 3e 22 d5 1f 3e 62 7a 54 be
       -0.04139552 0.25942865 0.15608647 -0.2074981
000180 6b 33 39 bc d3 c9 2f 3e f4 42 46 3d d1 f5 b9 3d
       -0.011303763 0.17166834 0.048403695 0.09080089
000190 4e 72 7d be d2 91 70 bd 67 6e 73 be bb 96 39 be
       -0.24750635 -0.058732815 -0.23772584 -0.18123905
0001a0 f4 97 37 be 38 61 14 bd 37 44 8e 3d 53 29 a2 be
       -0.1792906 -0.036225528 0.06946605 -0.31672153
0001b0 fe a2 eb bc 53 3a b8 bd 2a c1 1c 3e e9 f3 1b be
       -0.028764244 -0.089954995 0.15308061 -0.15229763
0001c0 02 46 03 be e2 57 cb 3c b5 81 c0 3d e2 27 80 bc
       -0.12819675 0.02482218 0.0939974 -0.015644018
0001d0 71 97 1f 3b 6f 1e d4 bc f6 cc 6c 3d ac 21 a5 be
       0.002435174 -0.025893418 0.057812653 -0.32252252
0001e0 81 aa 9a 3d bd a9 20 be a8 30 e4 3d c6 8b d7 bd
       0.07552052 -0.1568975 0.11142093 -0.105247065
0001f0 9c 82 27 be 02 a1 11 3e 37 ce 09 3e 48 a1 11 3e
       -0.16358417 0.14221576 0.13457571 0.1422168
000200 70 ac df bd f0 a9 6e 3d 80 48 10 3e af 93 3b 3e
       -0.10921562 0.058267534 0.14090157 0.18318056
000210 cc b9 0b 3e 2c 50 26 bd 2c c6 f6 bd d5 a1 45 3d
       0.13645095 -0.0406038 -0.12049517 0.04825004
000220 84 8c 1a be 94 08 19 bd 04 db 6e 3d be b2 03 3e
       -0.15092665 -0.037361696 0.05831434 0.12861153
000230 35 f2 7a 3b ab 67 1d 3e 47 8b 5a be ec 4d 20 3d
       0.003829134 0.15371577 -0.21342193 0.039136812
000240 74 5e 53 be 07 79 26 be 1a 8d b8 3b 4b 6f 53 3e
       -0.206415 -0.16257106 0.005632055 0.20647924
000250 69 47 94 3d da 2d 22 3e
       0.07240183 0.15837803

layers.0.bias f4 [10]
000000 a3 5d 52 bd a8 21 e6 bc c2 38 02 3d 96 16 8f bd
       -0.05135883 -0.02809222 0.03179241 -0.0698673
000010 df 98 90 3e 3f c4 cf bd 92 57 04 3e be 0c 39 3e
       0.2824163 -0.10144853 0.1292403 0.18071267
000020 76 13 17 be e2 38 61 3e
       -0.14753518 0.21994355

layers.2.weight f4 [10]
000000 88 15 72 3f f0 d8 7b 3f 75 61 7d 3f e6 67 80 3f
       0.94564104 0.98377895 0.9897683 1.0031707
000010 c6 29 90 3f ef 16 82 3f 8e dd 6d 3f 71 96 92 3f
       1.1262748 1.0163249 0.9291619 1.1452161
000020 26 04 71 3f 47 6b 69 3f
       0.94146955 0.9117932

layers.2.bias f4 [10]
000000 c0 cf 96 3c 42 18 4b 3c 64 c8 06 bb 44 02 5d 3c
       0.01840961 0.01239592 -0.002056622 0.01348931
000010 5f 2e 00 3a 9e 5e 36 3d df cc f3 39 e8 40 1e bd
       0.00048897223 0.044523828 0.00046501213 -0.03863612
000020 e1 6a e1 3c 71 76 cd bb
       0.027516784 -0.006270223

layers.2.running_mean f4 [10]
000000 8e ca 2b 3e b6 12 60 3e 2b 6b 8e 3e e3 80 ff 3d
       0.16776487 0.21882138 0.27816138 0.12475755
000010 07 fe 07 3f 46 31 bd 3d 01 0f 9b 3e 6f e7 71 3e
       0.5312199 0.09237914 0.30284885 0.23623441
000020 80 3a f4 3d 4d 29 9a 3e
       0.119252205 0.30109635

layers.2.running_var f4 [10]
000000 e3 2f 02 3e 24 2e 5f 3e 6a 09 dc 3d 52 a3 f8 3d
       0.1271358 0.21794945 0.10743983 0.12140526
000010 5e 30 92 3e cc 32 2c 3d 1f 30 fc 3d 48 2d 0b 3d
       0.28552526 0.04204063 0.12313866 0.03397873
000020 cd 9a 43 3d 48 4e 91 3e
       0.04775505 0.28380036

layers.4.weight f4 [15, 10]
000000 53 20 e6 3d ac d4 8e 3e 33 82 e9 3d a4 52 42 be
       0.11236634 0.2789663 0.11401787 -0.18976837
000010 66 72 4d 3e cb 0f 96 3e 16 72 3d 3e ac 6a 8b 3d
       0.20063171 0.29308924 0.18500552 0.068074554
000020 41 a4 6f 3d c5 16 15 3d 15 4c aa 3e bd 31 1b be
       0.058506254 0.036398668 0.3326117 -0.15155692
000030 d5 06 cf 3d 4a 41 00 bd 75 c3 a7 3e a9 74 5f 3e
       0.10108725 -0.031312265 0.3276631 0.21821846
000040 ee 0c 2b be 6d f4 70 3d 5a 35 91 bd 41 dc 2a 3e
       -0.16704151 0.058826853 -0.07090254 0.16685583
000050 21 bd 87 be c5 08 87 be c7 b3 0a 3e 94 66 14 be
       -0.2651148 -0.26373878 0.13545142 -0.14492255
000060 fa a6 1d 3e b4 f4 6c 3e 9b 75 52 be fa bb 16 be
       0.15395728 0.23140222 -0.20552675 -0.14720145
000070 82 e3 10 bd a7 36 9e 3d f4 c9 e4 bd 37 f1 80 3e
       -0.03537322 0.07725268 -0.11171332 0.25184032
000080 e3 e7 b8 3b 41 5e f5 3d ea 33 5b be b1 f1 91 bd
       0.0056428774 0.11980868 -0.21406522 -0.07126177
000090 72 38 86 be 2a bb 49 bd 75 50 f5 bd 7b e9 86 be
       -0.2621494 -0.04925076 -0.119782366 -0.26350006
0000a0 e6 bd 90 3c f7 aa 42 3e 47 a4 0e be 88 33 6b bc
       0.017668676 0.1901053 -0.13929854 -0.014355548
0000b0 57 67 7c 3e c5 2b 31 be 66 82 e2 3d 96 99 b4 bd
       0.24648796 -0.17301853 0.11060028 -0.08818357
0000c0 25 17 73 3e 30 ef d8 bb 5b 51 3b 3e b5 53 f3 bd
       0.23739298 -0.0066203102 0.18292753 -0.118812
0000d0 20 e1 85 be 56 02 85 3d 3d cb 9e be 8f c0 50 be
       -0.2614832 0.06494586 -0.31014434 -0.20385955
0000e0 b4 03 0c 3e 1b 7d be 3e 1c a7 65 be 53 ef 53 be
       0.13673288 0.37204823 -0.22427028 -0.20696764
0000f0 da e9 b3 3d 20 80 7c be 7a c1 a9 bd 3e b7 8f 3d
       0.08784838 -0.24658251 -0.08288856 0.070173725
000100 88 a9 2a 3e 47 ff 91 3d 71 d8 e2 3d 3f 27 80 be
       0.16666234 0.071287684 0.11076439 -0.25029942
000110 a5 14 13 bd 0c 8d e1 bd f2 81 9c be 7f d5 3e be
       -0.03590836 -0.11013231 -0.3056789 -0.1863613
000120 4e 08 0a 3c 52 e1 d9 3d d5 f6 66 be ae 8b 1d 3e
       0.008424832 0.106386796 -0.22555096 0.15385315
000130 97 d7 24 be f7 a7 00 3e 7a d3 6a 3e ee 8f 5a 3e
       -0.16097866 0.12564074 0.22932234 0.21343967
000140 e5 59 8f 3e b4 29 67 3d a9 dd 52 be 79 30 11 be
       0.27998272 0.056436256 -0.20592369 -0.14178647
000150 0f b4 01 bd 2f 2f 51 be 6f f4 04 be a5 14 c2 be
       -0.031665858 -0.20428155 -0.12983869 -0.37906376
000160 1c c2 af bd 8d 4a a1 be 53 f2 9b 3e be d1 54 3d
       -0.08581945 -0.3150219 0.30458316 0.05195784
000170 20 e8 a0 3e ee 4a 2c 3e 82 e8 99 3e 2a 3a d3 bd
       0.31427097 0.16825458 0.30060202 -0.10313828
000180 7e 5f 0a be 67 1f 23 be 22 e6 98 be 18 0e 12 bd
       -0.1351299 -0.15929948 -0.29863077 -0.035657972
000190 dd 18 aa 3b 09 1c 15 3e 3c dc 67 bd 28 a9 45 3d
       0.005190952 0.14561476 -0.056606516 0.048257023
0001a0 36 91 16 3e 38 51 99 3d fb c5 93 3d f1 f8 3a be
       0.14703831 0.07486194 0.07215496 -0.18259026
0001b0 37 c0 27 3e e2 72 8e be c0 e9 5a 3d 81 ba 27 3e
       0.16381918 -0.27822024 0.053445578 0.1637974
0001c0 b5 a3 34 3e 25 d7 1c 3e 1e 09 7e bd f4 2b 6d 3e
       0.17640574 0.15316446 -0.062020414 0.23161298
0001d0 4a 06 8e be 20 4e 63 bd 75 16 f9 bd da 13 64 3e
       -0.27739173 -0.055494428 -0.121624865 0.22273198
0001e0 b5 5b 81 3e 17 6c bc bd 79 5a e5 3d 18 db 2e bd
       0.2526528 -0.09200304 0.11198897 -0.042689413
0001f0 ed 6b 5e bd 55 f5 0f 3e 72 ee b2 3d b1 ef 5f be
       -0.054302145 0.1405843 0.08736886 -0.21868779
000200 b9 de e1 3d fc da 89 3e 90 0c 36 be 81 f7 e8 bc
       0.11028809 0.26924884 -0.1777823 -0.028438332
000210 40 6c 79 be 23 ae a9 bd 43 b5 98 3e 02 f0 64 3e
       -0.243577 -0.08285167 0.29825792 0.2235718
000220 c1 28 87 be 49 ce b5 be 95 5a 57 3c 1c 30 91 bc
       -0.2639828 -0.35508946 0.013144155 -0.017723136
000230 4e 02 72 3e d3 6d c1 bd dd f8 75 3e 28 58 3f be
       0.23633692 -0.094447754 0.24020715 -0.18685973
000240 9e 6b f9 bb 38 58 7c 3c da f0 31 be 13 a4 59 bc
       -0.007611706 0.015401892 -0.17377034 -0.013283747
000250 50 2c 36 bd 0a 63 03 be
       -0.044475853 -0.12830749

layers.4.bias f4 [15]
000000 36 80 4d be 84 a7 04 bc 4d 3c b1 3e 82 ea 0b 3e
       -0.2006844 -0.008096579 0.34616318 0.13663676
000010 b0 92 7d be cc 5d bd bd eb 38 56 3e 49 54 29 bd
       -0.24762988 -0.09246406 0.2092015 -0.041340146
000020 f2 25 f7 3c 33 a5 07 be 2c 68 7f 3e be 9c 3e be
       0.03016946 -0.13246612 0.24942082 -0.1861448
000030 ca 14 80 be f9 30 6a be 7a 15 91 be
       -0.2501586 -0.22870244 -0.28336698

layers.6.weight f4 [15]
000000 3e a4 86 3f cf d6 75 3f 9a d9 80 3f fa 94 72 3f
       1.0518873 0.96030897 1.0066407 0.9475857
000010 07 6b 82 3f f4 a8 84 3f 7a 86 78 3f f7 ad 72 3f
       1.0188912 1.036406 0.97080195 0.947967
000020 14 7f 73 3f c8 b2 7b 3f 70 90 89 3f 30 4e 71 3f
       0.9511578 0.98319674 1.0747204 0.9425993
000030 78 71 81 3f cc f9 86 3f 32 1a 77 3f
       1.0112753 1.0544982 0.96524346

layers.6.bias f4 [15]
000000 ea 1b b4 3c 0f 20 d7 3c fa d9 71 3d 81 2e d2 3c
       0.021985967 0.026260404 0.05904577 0.02565694
000010 38 34 be 3b 96 6e 21 bd b8 bc 85 3d 7f 8b bc 3c
       0.005804565 -0.039412104 0.06530136 0.023015736
000020 bf 90 83 3d d4 0e 8e 3c 34 10 39 3d 43 15 95 bb
       0.064240925 0.017341055 0.045181468 -0.0045496537
000030 32 65 26 3d 69 23 bc 3c 0e b0 c7 3c
       0.04062385 0.022966104 0.024375942

layers.6.running_mean f4 [15]
000000 7b 60 79 3e 25 c1 7b 3e e2 a0 02 3f 42 09 94 3e
       0.2435321 0.24585398 0.5102674 0.28913313
000010 2f 5c ec 3d b0 03 ba 3e 59 7a bd 3e 34 8e 7e 3e
       0.1154102 0.36330938 0.37007406 0.24858934
000020 af 97 a5 3e 49 13 82 3e 0c 41 c8 3e 8d f4 1e 3e
       0.32342288 0.25405338 0.39112127 0.15522976
000030 46 1f 24 3e 78 29 98 3e 99 5f 97 3d
       0.16027555 0.29719138 0.07391281

layers.6.running_var f4 [15]
000000 70 7e 22 3f e4 44 d1 3e c5 2c 9d 3e fc 47 f7 3d
       0.6347418 0.40872872 0.3069822 0.12074277
000010 f8 c0 01 3e 4f aa ab 3e 5b 16 39 3e 4b 4a 2d 3e
       0.12671268 0.33528373 0.18074934 0.16922872
000020 ea ea 2c 3e 11 16 97 3e 45 b4 66 3e 4a 9c 4b 3e
       0.16886488 0.29509023 0.22529705 0.19883838
000030 57 7f 64 3e ee 21 b7 3e 81 ba 23 3d
       0.22314201 0.35768074 0.039972786

layers.8.weight f4 [20, 15]
000000 c2 ba 18 bc ed d6 bc 3b 7d 21 c7 bd f4 94 e0 3d
       -0.00932187 0.005762926 -0.09723184 0.109659106
000010 ac c0 7c bc fc 90 b5 3d b1 e4 03 3e 14 e7 19 3d
       -0.015426796 0.08865544 0.12880208 0.03757389
000020 de ce 82 3e 41 9a 31 3e c2 f5 44 be d9 6a 1e 3e
       0.25548452 0.17344 -0.19234374 0.15470447
000030 de 58 7f bd 9b 59 1b bc 8e 6b f8 3c ee 66 56 be
       -0.06234061 -0.009481813 0.030324724 -0.20937702
000040 27 b5 2b 3e c4 22 56 3e 88 39 61 3e 25 a6 83 3d
       0.16768323 0.209117 0.21994603 0.06428174
000050 62 5e 0e be 48 0c 85 3c d0 93 f0 bd 29 4c 36 be
       -0.13903192 0.016241208 -0.11746943 -0.1780249
000060 d5 64 c4 3d 8e 91 b9 3d 24 dd c3 bd a1 05 18 be
       0.09589545 0.090609655 -0.095636636 -0.14845897
000070 b8 b0 a5 3c c3 d0 a4 3d 2d 52 72 3e dc b4 0b 3e
       0.020225868 0.08047631 0.2366416 0.13643211
000080 48 57 70 3e 53 f9 1c 3e 2a 0e 8e bd 6b 37 5d bd
       0.23470795 0.15329485 -0.06936295 -0.05400793
000090 f2 70 0d be 9a ba 11 be f4 f6 b7 3d d8 8d f7 3d
       -0.13812616 -0.14231339 0.089826494 0.120876014
0000a0 9f 46 49 3e ee e9 52 3e 19 69 15 3e d0 41 11 bd
       0.19655846 0.2059705 0.14590873 -0.035463154
0000b0 14 13 2b bd 8c b9 68 bc 12 97 d1 3d 26 2f 2b be
       -0.04176624 -0.014204394 0.102338925 -0.16717204
0000c0 32 8a b5 bd 50 79 b7 3d 0e b0 ce 3d 42 bb 57 3e
       -0.08864249 0.089586854 0.100921735 0.21067527
0000d0 33 b1 52 3e b9 6d f5 bd f1 c4 83 3d b8 9e 3d be
       0.20575409 -0.119838186 0.06434048 -0.18517578
0000e0 9b a8 98 bc 33 90 86 bd 2a f7 19 3d 82 de 7c 3e
       -0.018635085 -0.065704726 0.03758923 0.24694255
0000f0 f9 2e 2d be aa a8 4b 3e 13 4e 4a 3e 81 f4 df bd
       -0.1691245 0.19888559 0.19756345 -0.10935307
000100 26 4a f1 bb 57 6e c9 bd 39 fa 3c 3e fb c5 b1 bd
       -0.0073635755 -0.09835499 0.18454827 -0.0868034
000110 d5 d9 84 3d 99 88 99 bd 2f b4 89 3e a8 8e 69 bd
       0.06486861 -0.07496757 0.26895282 -0.057020813
000120 36 39 61 3e 35 a7 c8 bd 90 a0 a4 bd e9 60 02 3e
       0.2199448 -0.09797517 -0.08038437 0.12732281
000130 be 0c ee 3b 15 c3 ec bd e9 f4 69 be cd ae 5a be
       0.0072647026 -0.115606464 -0.22847332 -0.21355744
000140 1f e5 80 be 4d d3 ec bd 22 9c 48 be 19 a2 98 bd
       -0.25174806 -0.1156374 -0.1959081 -0.07452793
000150 26 72 53 3e 38 3f 55 bd 9e 71 56 be 63 87 54 3d
       0.20649013 -0.052062243 -0.20941779 0.051886927
000160 72 a6 23 be 27 6b 03 be ab 64 ae 3c fe 29 da 3c
       -0.15981463 -0.12833844 0.021288237 0.026631352
000170 e0 6a 99 bd 07 71 48 be b2 33 3f be 01 16 11 be
       -0.07491088 -0.19574367 -0.18672064 -0.1416855
000180 74 9d 39 3e a1 fc b0 3c a0 86 42 3e c6 87 ac 3d
       0.1812647 0.021604838 0.18996668 0.08424334
000190 5a 99 b7 bd d3 29 4b 3d fd bd 25 3a 0e 7e 83 3e
       -0.08964796 0.049600434 0.0006322561 0.2568211
0001a0 34 f7 b0 3d 0d f8 82 3e 7a 51 50 be b7 bb c0 bd
       0.086409 0.25579873 -0.20343581 -0.09410804
0001b0 69 b5 5e be 21 dc 0a 3d 49 0a 4c be 33 20 b2 bd
       -0.2174889 0.033901338 -0.19925798 -0.08697548
0001c0 ea cd 58 3e 45 16 83 bd 36 cf f5 3d 2c 88 45 3e
       0.211723 -0.06400732 0.12002413 0.19290227
0001d0 76 c5 3f 3e 84 61 78 3e 29 17 4c 3e 27 de d5 3b
       0.18727669 0.2425595 0.1993071 0.0065267268
0001e0 35 30 75 3e 58 bf 88 3e ab 11 04 be f0 e7 ee 3c
       0.23944171 0.26708484 -0.12897365 0.02916333
0001f0 14 36 55 3e 79 60 67 be 82 2e 0f 3e 24 af 0d 3e
       0.2082141 -0.22595395 0.13982585 0.13836342
000200 b5 82 23 3d cb 30 2b bd 66 5c 47 3d c4 07 47 3e
       0.039919574 -0.04179458 0.048672102 0.19436556
000210 79 e5 25 be 2d 44 fe 3d 64 7c d4 bd 4b 29 57 3e
       -0.16200818 0.12415347 -0.10375288 0.21011846
000220 e9 36 45 bd dd bd be 3d 00 10 06 3e 55 50 11 3d
       -0.04814807 0.09313557 0.13092041 0.035477
000230 6b 54 ca bd ab 5b 7a 3e ba 39 4f 3e 35 ad df 3d
       -0.09879383 0.24449031 0.20236865 0.109217085
000240 3e 0a 24 3d cd 53 af 3d 83 0d 15 be 31 d3 32 3e
       0.04004883 0.085609056 -0.14555936 0.17463376
000250 42 df 48 3e bd fa 3b 3e b9 6c 70 be 8e 21 28 3b
       0.19616416 0.18357368 -0.23478974 0.0025654766
000260 6d 0f 1b bd 58 bd 58 bd e0 8f a1 bd 7b f3 e0 3d
       -0.037856508 -0.052914947 -0.0788877 0.1098394
000270 23 58 f1 bd 4a 2a 3a 3e 92 78 71 be 44 0c 96 bd
       -0.11784389 0.18180194 -0.2358115 -0.07326558
000280 04 0d 4b be f7 f3 04 3e 81 87 22 be 9e 02 06 be
       -0.19829184 0.1298369 -0.15872003 -0.13086936
000290 fc 19 20 3e 04 cb 87 be 72 eb 27 be a7 36 32 3e
       0.15634912 -0.26522076 -0.16398409 0.1740366
0002a0 b8 da 37 3e ea d2 ad bd 49 d4 79 bd 15 e4 11 be
       0.17954528 -0.08487494 -0.060993467 -0.14247163
0002b0 f8 3b 24 3d 64 34 8d 3d 4d 44 02 3e 19 23 9e 3d
       0.040096253 0.06894758 0.12721367 0.07721538
0002c0 62 24 a5 3d 3f 1f e8 bd 20 4a 40 be f7 eb 08 3e
       0.0806358 -0.11334085 -0.18778276 0.13371263
0002d0 3f 56 82 bc 16 c3 2f be 52 69 34 bd 9c 4f 8c 3e
       -0.015910266 -0.17164263 -0.044045754 0.27404487
0002e0 32 0a 38 bd 2a 71 22 be 63 81 e4 3d 56 ac 3a 3e
       -0.044931598 -0.15863481 0.11157491 0.18229803
0002f0 c8 a0 3f be ea 68 62 be b0 96 5d be 2e 56 a0 3d
       -0.18713677 -0.22110334 -0.21639514 0.078289375
000300 dc b9 0e be c5 20 92 be e0 93 5d bc ba 54 fd bd
       -0.13938087 -0.28540626 -0.013524026 -0.12369676
000310 c3 b4 94 bd 96 47 d7 bd 05 87 a1 bd f0 f9 36 be
       -0.0726104 -0.10511701 -0.07887081 -0.17868781
000320 bc 76 38 bd 15 8b 1b be 20 3d 10 bd 2d 96 16 be
       -0.04503511 -0.15189774 -0.035214543 -0.14705725
000330 56 6e cf 3c 16 f8 44 3e de cb df bd 6f 17 71 3a
       0.025321167 0.19235262 -0.109275565 0.0009196912
000340 07 9d d3 bc c8 48 aa bd 27 a0 33 be 42 f1 ba 3b
       -0.025831712 -0.08314663 -0.17541562 0.0057050297
000350 3e e3 27 bc 3b 88 76 3c bc 42 37 bd 7f 52 49 be
       -0.01024705 0.015047128 -0.044741377 -0.19660376
000360 a9 e3 c2 bd 67 e9 f7 3d 13 ba 28 3e 23 76 d5 bd
       -0.09516079 0.12105065 0.16477232 -0.104229234
000370 6f 55 0a 3e 1c fa 4a be 88 c6 88 bd 47 d5 3d be
       0.13509153 -0.19821972 -0.06678492 -0.1853839
000380 50 e3 f8 bc 64 4b b4 3d 8d df 43 3e 59 01 7e 3d
       -0.030381829 0.08803442 0.19128247 0.062013004
000390 1d e4 9e 3d 20 b6 3b bd 1a 40 88 3e 5a b2 6a be
       0.07758353 -0.045827985 0.26611406 -0.22919598
0003a0 a4 c0 f4 bc 95 34 45 bd 06 0a 35 3e 00 d5 2a 3d
       -0.029877014 -0.04814585 0.17679605 0.04170704
0003b0 c4 93 82 3e 6d 54 1f be 50 8d 18 3d b7 0c 56 be
       0.2550336 -0.1555955 0.03724414 -0.20903288
0003c0 82 4a e3 bc a9 ae 09 be 99 34 29 be 5f 90 ed 3c
       -0.027745489 -0.13445534 -0.1652397 0.028999506
0003d0 04 64 97 bd e9 e0 83 3e 65 be 70 3d ff a7 77 3d
       -0.07392123 0.2575753 0.058775324 0.060462948
0003e0 b1 9f 82 3c ef 09 ff ba 37 bc 28 be 9b 24 16 be
       0.015945287 -0.0019457916 -0.16478048 -0.14662401
0003f0 47 ee 7a be a8 87 cb bd ce 61 e0 bd 99 bb 8e 3e
       -0.24504958 -0.09937984 -0.10956155 0.278775

layers.8.bias f4 [20]
000000 40 b5 c6 3d a4 a6 d3 3c f0 15 87 3c 78 f2 bc 3c
       0.097025394 0.025836296 0.016489953 0.023064837
000010 be 16 6e 3e c6 db 35 3e 46 62 a6 bd 55 44 d8 3c
       0.23250863 0.17759618 -0.08124213 0.02639977
000020 bf ca b3 3b c5 ac c1 3c 7e 7e 2c 3e 3f 7c 9b 3e
       0.0054868157 0.023641953 0.16845128 0.3036823
000030 c7 3f ee 3d c1 d3 c6 bd b8 21 37 3e 6f be 85 3e
       0.11633258 -0.097083576 0.17883956 0.26121852
000040 8b 40 19 3e 51 38 6e 3e 2e b5 83 3d 9b 95 3c 3b
       0.14966027 0.2326367 0.06431042 0.0028775695

layers.10.weight f4 [20]
000000 24 62 63 3f 49 a4 82 3f b7 53 8b 3f 89 35 6a 3f
       0.88821626 1.0206386 1.0884923 0.9148794
000010 03 1a 85 3f 59 10 6b 3f af 30 7b 3f 5b f7 7d 3f
       1.0398563 0.9182182 0.9812116 0.9920556
000020 50 a3 8c 3f 4a e0 8f 3f ec af 86 3f 9f 2c 78 3f
       1.0987339 1.1240323 1.0522437 0.96943086
000030 57 96 7d 3f a0 fa 68 3f 2b a5 7b 3f 9d dc 7f 3f
       0.99057525 0.91007423 0.982989 0.99946004
000040 4e 00 7c 3f 68 d4 82 3f ac 01 82 3f be 23 84 3f
       0.98437965 1.0221071 1.015676 1.0323408

layers.10.bias f4 [20]
000000 0f e6 9b 3d 38 c2 20 bd 21 0c 99 bc 16 8e 83 3d
       0.076122396 -0.03924772 -0.018682541 0.06423585
000010 02 dd d1 3c 14 5b 50 bc d1 56 9d bc bd 34 40 bd
       0.02561808 -0.012717027 -0.019206436 -0.046925295
000020 12 8c 73 bd c6 72 46 bc 91 22 b6 3c bd 30 96 bb
       -0.059459753 -0.012112325 0.02223328 -0.004583447
000030 b5 ee 9f 3c 4c 24 06 3c 12 fe f5 bb 4d 07 d4 3b
       0.019523004 0.008187365 -0.007507094 0.006470597
000040 4d 1e 13 3d 1e 13 76 bc 1e ad 87 bd e3 0d e0 bc
       0.03591757 -0.015019206 -0.06624816 -0.027350372

layers.10.running_mean f4 [20]
000000 00 d8 81 3e c2 26 81 3e e5 03 94 3e 9a 7d 70 3e
       0.25360107 0.25224882 0.2890922 0.23485413
000010 95 42 ea 3e 6f ca c0 3e 51 4b 69 3e 7f 93 a2 3e
       0.45753923 0.37654445 0.22782637 0.31753156
000020 77 27 94 3e 39 8c be 3e df 33 db 3e 66 ae d7 3e
       0.2893636 0.37216356 0.42813012 0.42125243
000030 59 96 d0 3e 60 8d ca 3d 1e a3 a1 3e 8f 95 b6 3e
       0.40739706 0.098902464 0.3156976 0.3566098
000040 51 0f d0 3e 2d 4f c6 3e 9c c5 b0 3e 6c 75 a7 3e
       0.40636685 0.3873228 0.34525764 0.32706773

layers.10.running_var f4 [20]
000000 f2 7d 16 3e a7 17 25 3e 4b e4 01 3f fc 78 39 3e
       0.14696482 0.16122304 0.5073897 0.18112558
000010 dd 03 04 3f af 68 2f 3e d3 19 6d 3e c0 96 31 3f
       0.51568395 0.17129777 0.23154382 0.6937065
000020 78 37 16 3f f3 27 2d 3f 98 b3 86 3e 22 83 1c 3e
       0.5867839 0.6763908 0.26308894 0.15284398
000030 c6 52 7d 3e d4 f7 c0 3c db e0 b2 3d 79 43 86 3e
       0.24738607 0.023555674 0.08734294 0.26223353
000040 3e 10 8e 3e 51 d7 03 3f 1f df 23 3f c1 3c 9d 3e
       0.27746767 0.5150042 0.6401233 0.30710414

layers.12.weight f4 [10, 20]
000000 f5 2c 9d 3d 58 3b b0 3c 49 e6 3c bb c0 58 61 bd
       0.076745905 0.021512672 -0.0028823784 -0.05501628
000010 4b bc 52 be ba f0 37 be bb e7 17 be 59 31 99 3c
       -0.2057964 -0.17962924 -0.14834492 0.018700289
000020 84 e1 fd bd c0 1e 77 be ba 7b 77 3e 2a b4 38 be
       -0.12396529 -0.24132824 0.24168292 -0.18037477
000030 88 9d 9d 3d cb 74 4b 3e 5f 39 c9 bd a0 99 31 3d
       0.07696062 0.19868772 -0.09825396 0.0433594
000040 26 83 61 3e cd 16 ca 3d 6b 9d 84 3d 2c 1b 00 be
       0.22022685 0.0986763 0.064753376 -0.12510365
000050 8b df 7f 3d 27 f8 9b 3d 21 34 c9 bd ae 4e 0e 3e
       0.062469047 0.07615691 -0.09824396 0.13897201
000060 a5 37 86 bd 0b 6d bb 3d 3e 9f 3c be 39 9c 3c bd
       -0.06553582 0.09151658 -0.18420121 -0.046047423
000070 87 a0 92 be af 72 9c bd 5a f0 ae 3d da 05 e1 3d
       -0.28638098 -0.07639062 0.08541937 0.10987444
000080 6d 3d 2b 3e d1 fa 84 bd 8f af e1 3d ff 8e 69 be
       0.16722651 -0.06493152 0.11019813 -0.22808455
000090 b7 b1 51 3e 2e e4 3e 3d 04 da c2 bd 02 c6 41 bd
       0.20477949 0.046604328 -0.095142394 -0.047307976
0000a0 49 bf 44 3d ab 6c 72 be 52 51 5f 3d ac 9a 45 3c
       0.048033986 -0.23674266 0.054520912 0.012060802
0000b0 56 81 dc 3d cb 26 5d bd 95 d4 d2 bc a6 ca ab bc
       0.10766856 -0.053992074 -0.025736133 -0.020970654
0000c0 dd 6a da 3d d5 00 8d be 8d 71 4d 3e e0 73 e0 3d
       0.10664914 -0.27539697 0.20062847 0.109596014
0000d0 e4 ae f6 3c 93 ca f4 bd 00 97 39 3e 21 37 09 3e
       0.030112691 -0.119527005 0.18124008 0.13399936
0000e0 f2 43 29 bd 2c f6 f3 bb ed 47 15 be ed df 48 be
       -0.041324563 -0.0074451175 -0.14578219 -0.19616671
0000f0 7b be 23 3e bd c4 a2 3d d9 5f 85 bd 9c 2c b1 3d
       0.15990631 0.07947681 -0.06512422 0.08651087
000100 d7 2d 99 3d 5f 6d 77 3d 82 90 05 3e f9 bc 83 be
       0.074794464 0.06040704 0.13043407 -0.25730112
000110 56 13 33 be 90 06 06 3e b2 ed 30 3d 59 4b 25 3d
       -0.17487845 0.13088441 0.043195434 0.04035506
000120 17 a6 1b be 1f 37 cc bd 54 ba ea bd 1a 0d 43 3d
       -0.15200077 -0.09971451 -0.114613205 0.047619916
000130 af 62 f1 bd 77 5f 2b 3e 3e 67 42 be 3e c8 a0 bd
       -0.117864005 0.16735636 -0.18984696 -0.07850693
000140 11 cf 03 3e c4 bc f6 bd 85 0a bf bd cd 9e 9c bd
       0.12871958 -0.12047723 -0.09328178 -0.07647476
000150 1b 04 17 bd d9 c6 ff bd 4f 5f 1c be 9e 6a 49 be
       -0.03686915 -0.12489099 -0.15270732 -0.19669577
000160 e6 76 00 bd 0f 4c 19 be 09 b2 85 bd e4 df 68 bd
       -0.03136339 -0.1497042 -0.06528098 -0.056854144
000170 c9 10 1e bd 89 5e 44 3e 5e 63 36 bd 0b 83 ab 3d
       -0.038590226 0.19176687 -0.044528358 0.08374604
000180 55 24 6a 3e 31 dd 37 be 63 62 7c 3c 1b 23 a8 bd
       0.22865422 -0.17955472 0.015404317 -0.08209821
000190 4b c6 45 3e 68 b2 6d 3d 2d 11 2a 3e 08 48 17 be
       0.19313924 0.05803147 0.16608115 -0.14773571
0001a0 ca 58 9b 3e a3 2c be bd 24 53 24 3e 3f 89 2d 3c
       0.30341178 -0.092858575 0.1604734 0.010591804
0001b0 e1 85 25 3e 3d 9c d8 3d 5b 74 a7 3d 64 34 45 be
       0.16164352 0.10576675 0.0817649 -0.19258267
0001c0 c9 97 bd 3d 3f 81 2b 3e 05 73 00 3d 6e 52 30 3e
       0.09257466 0.16748522 0.03135969 0.17218944
0001d0 62 76 e8 3d 90 26 cf 3d 17 1f 63 3e 1c af 0e 3e
       0.11350705 0.10114777 0.22179829 0.13933986
0001e0 49 7f 84 3d 0a fd 31 be b0 d1 e3 bd da cd ca bd
       0.0646959 -0.17381683 -0.11123979 -0.09902544
0001f0 85 73 2a be ba e3 c3 bd 3a 04 d0 bd 62 bf 37 bd
       -0.1664563 -0.0956492 -0.10157056 -0.04486025
000200 3d a5 9b bd 15 7d d9 3a c0 52 24 3e d2 a0 3d bd
       -0.07599876 0.0016593063 0.16047192 -0.04629595
000210 71 ff 3f 3e 84 9c 83 bd bc b1 c2 bd 64 62 77 3e
       0.18749787 -0.06426337 -0.095065564 0.24158627
000220 61 89 de 3d db 39 88 3c 60 40 6f be 39 a9 80 3d
       0.10866047 0.01662915 -0.23364401 0.06282277
000230 2f 88 e3 bd bc 2b c2 3d ad 9f 8f bc 16 f7 1f 3e
       -0.11109959 0.09480998 -0.017532194 0.156216
000240 60 b8 e3 bc 67 fc 2f be 8e 38 23 be 9f 26 72 bd
       -0.027797878 -0.17186128 -0.15939543 -0.059118863
000250 bd df 09 3d bf 53 e4 3d d4 55 0d be c4 ca 90 bd
       0.03366064 0.11148786 -0.13802272 -0.070699245
000260 2f c1 af bc 3b 97 19 3e cf 73 90 bd 61 7c 5a 3e
       -0.021454422 0.14999096 -0.07053339 0.2133651
000270 c7 5b c4 bd 0e 0a 7f 3e c0 a3 b5 bc bf c8 e5 bb
       -0.09587818 0.2490618 -0.022172809 -0.007012456
000280 24 ab 75 bd 1d 44 91 bd 88 c6 2a be d8 07 fe 3d
       -0.059977666 -0.0709307 -0.16677296 0.1240384
000290 22 5d 64 be b3 ec 10 3d 1e 82 48 be de 60 41 be
       -0.22301152 0.035381984 -0.19580886 -0.18884608
0002a0 3c 1f 56 bd 33 19 e7 bd 35 e0 e7 3c bd d2 3c 3d
       -0.05227588 -0.11284103 0.028305152 0.046099413
0002b0 c7 b5 ae bc 25 55 cb bd ed 38 6e 3c 84 6b af 3d
       -0.021326913 -0.099283494 0.014539939 0.08565429
0002c0 2e 0b de 3d f5 dd 3b be 69 80 2c be 87 18 5e be
       0.10841976 -0.18346389 -0.1684586 -0.21689044
0002d0 e9 69 a5 3d 6e 61 01 be 0e a9 7c 3e c3 26 ce 3d
       0.080768414 -0.12634823 0.24673864 0.10065987
0002e0 9b 37 58 3e 3b 35 52 bd 43 dc cc 3d 8b de 7f 3c
       0.21114962 -0.051320296 0.10002949 0.015617023
0002f0 58 ae 69 3d bb 51 60 3e b2 fe 2b be fa 0c 8a bd
       0.057051033 0.21906178 -0.16796377 -0.06740756
000300 e6 4a 28 bd 43 32 87 3d 37 06 67 bd 7e 7d 02 be
       -0.041087054 0.066013835 -0.05640241 -0.12743184
000310 7d c5 e2 bd ba 82 07 3e 52 47 e4 bd 12 13 d4 bd
       -0.11072824 0.13233462 -0.11146416 -0.103552

layers.12.bias f4 [10]
000000 b9 83 68 3c be ec 34 3e 2b 39 23 bd 28 ce 1f 3e
       0.014191561 0.17668435 -0.03984944 0.15605986
000010 af 89 0e 3e c7 cf 16 3e 6e 86 21 3d 60 d6 3b be
       0.1391971 0.14727698 0.039434843 -0.18343496
000020 ef 6d 9c 3d 1a bc dc bd
       0.07638156 -0.10778065

layers.14.weight f4 [10]
000000 e5 f0 5a 3f 15 ab 4f 3f 0b 9d 51 3f cb 7a 51 3f
       0.85523826 0.81120425 0.81880254 0.8182799
000010 a7 9d 56 3f ea 0b 75 3f 23 3b 72 3f 02 8d 69 3f
       0.8383431 0.95721304 0.94621485 0.91230786
000020 85 b3 69 3f e3 a1 7d 3f
       0.9128955 0.99075145

layers.14.bias f4 [10]
000000 2c 7f 18 be 80 32 94 3e 6b 1f 9b 3e 1d 6a 9e 3e
       -0.14892262 0.28944778 0.30297408 0.30940333
000010 98 df 82 3e eb a3 30 be 68 49 1e be 47 0a 8f be
       0.25561213 -0.1725003 -0.1545769 -0.27937528
000020 23 cf b3 bd 9c 83 9f bd
       -0.087797426 -0.07788774

layers.14.running_mean f4 [10]
000000 d1 8f d9 3e 4f df fe 3e 11 a3 8b 3e dc 85 ac 3e
       0.42492536 0.49779746 0.27272847 0.33695877
000010 b0 69 e9 3e 32 23 e4 3e 0d 29 cb 3e 8e a4 32 3e
       0.45588446 0.44558102 0.39679757 0.17445585
000020 8a 26 06 3f bc 6e 96 3e
       0.52402556 0.2938136

layers.14.running_var f4 [10]
000000 45 7d d4 3e 99 26 89 3e 1a e9 29 3e 3c af 51 3e
       0.41501823 0.2678726 0.16592827 0.20477003
000010 fe 15 8e 3e df df 94 3f b9 4e b8 3e d0 86 64 3e
       0.27751154 1.163082 0.3599756 0.22317052
000020 29 75 8b 3e 28 6d 16 3f
       0.27237824 0.5876031

layers.16.weight f4 [3, 10]
000000 02 32 15 bd 7b d3 7c bc a3 55 07 be f3 d5 1c be
       -0.036424644 -0.01543128 -0.13216262 -0.1531599
000010 da 24 21 be 80 be 36 3e 4e ba 96 bd 47 d0 62 3e
       -0.15736714 0.17846107 -0.073597535 0.22149764
000020 eb 1e e8 bd 28 90 4d 3e f6 04 bd bd 03 20 4c 3e
       -0.11334022 0.20074522 -0.09229462 0.19934087
000030 82 53 83 bd 79 c7 58 bd 34 b6 cd 3d 31 1e 76 bc
       -0.06412412 -0.052924607 0.10044518 -0.015021847
000040 d0 b8 05 be 54 b0 be 3d 8e 52 c3 bd 85 d5 95 3d
       -0.13058782 0.09310976 -0.095372304 0.07316116
000050 59 a6 29 3e 7a 77 77 3e 2b 66 4c bd a3 9f 0b be
       0.16567363 0.2416667 -0.049902122 -0.13635115
000060 03 e3 34 3e 92 ea 0f be bf e4 45 3d 2e 6a be 3d
       0.17664723 -0.14054325 0.048313852 0.09297596
000070 4d 69 4b 3e 82 af cc bd
       0.19864388 -0.09994413

layers.16.bias f4 [3]
000000 5c 5c b9 bd ad 3d a1 3e 83 2d 66 3e
       -0.09050819 0.31492367 0.22478299

grad_avg f4 [10, 15]
000000 4b db 44 bb fe f5 a6 bb e0 43 0c 39 07 84 95 3b
       -0.0030037935 -0.0050952425 0.00013376726 0.004562858
000010 aa 52 52 ba 43 d7 e0 bb 46 6f b0 bc e2 b0 e9 bb
       -0.0008023182 -0.0068615987 -0.021537434 -0.007131682
000020 48 d5 50 3c 94 10 b4 39 70 58 77 bc 0a 1f 1b bc
       0.012746163 0.00034344627 -0.015096769 -0.0094678495
000030 3d b4 91 bb 8f d4 13 b9 87 83 13 b9 ca ea 07 ba
       -0.004446535 -0.00014098197 -0.0001406801 -0.00051848276
000040 9b 61 2c ba 79 25 ea 3a 8a 62 06 3c fa e7 ec b7
       -0.00065758236 0.0017863951 0.0082022045 -2.8241415e-05
000050 e3 e2 96 3b ce 1b de ba e6 bb 4d 3c c7 66 29 bc
       0.0046046837 -0.0016945542 0.0125570055 -0.010339445
000060 2e f3 2d 3c cf 3e 94 3b 28 54 26 bb 9d 22 5a bb
       0.010617061 0.004524089 -0.002537975 -0.0033284791
000070 87 5f 88 ba 4a 6f 1c ba 30 c6 ad 3b dc ac 48 3c
       -0.0010404446 -0.0005967511 0.005303167 0.012248244
000080 fc 12 92 bb d3 a7 c5 3a a0 68 ba bb db 3b 7b bb
       -0.0044578295 0.0015079923 -0.005688742 -0.0038335237
000090 99 28 b9 bb 66 81 79 ba c4 ee 18 3b 4a 9b 14 bb
       -0.0056505916 -0.0009517878 0.0023335675 -0.0022675567
0000a0 da 3b d0 3b 53 85 3c bc 91 46 af 3a 31 6d 6f b9
       0.006354791 -0.011506396 0.0013372471 -0.00022833493
0000b0 47 64 6d b9 20 9b dc ba 6d d2 10 bc 07 fe ce 3b
       -0.00022639438 -0.0016830899 -0.008839232 0.0063169035
0000c0 27 1e 7c b9 a8 10 fb 3b 4b ab 2e 3b 03 62 09 3c
       -0.00024043825 0.0076618977 0.0026652392 0.008385184
0000d0 1d 21 2a 3b a4 c7 11 bc e0 93 8b bb b9 3a fc 3a
       0.0025959678 -0.008897696 -0.0042595714 0.0019243575
0000e0 ea 4f 2f bc 17 f6 85 bb de 7d e6 3a ef 57 91 39
       -0.010700205 -0.004088174 0.0017585119 0.0002772207
0000f0 76 4d 16 bb ed 1a 98 3b fa 19 f4 39 52 53 bd ba
       -0.0022934354 0.0046418817 0.0004655866 -0.0014444387
000100 2f 73 80 3a 45 a3 e6 ba 32 e5 6f bb b7 60 08 bc
       0.0009799952 -0.0017596266 -0.0036605117 -0.00832384
000110 9a a3 d0 3b 98 82 d5 3a 7d 98 ac 3b 48 3f 81 bc
       0.006367159 0.001628953 0.0052672015 -0.015777245
000120 e5 f4 ed b8 27 47 34 3b b8 7e 06 ba 39 63 18 3c
       -0.00011346656 0.002750823 -0.0005130577 0.009301
000130 b6 99 08 3c a0 79 5a 3c 7a c8 a7 3b 7b e3 71 3c
       0.008337429 0.013334662 0.005120334 0.014763708
000140 1f f7 a3 3b b8 3d 83 3c 05 39 54 bc ec 90 b2 3c
       0.0050038244 0.01602064 -0.012953048 0.02179762
000150 f3 79 25 3b b8 b7 a7 3c 25 b6 0e bc 59 86 a5 3b
       0.002524969 0.020473346 -0.008710419 0.005051416
000160 de 71 ae 3a 5c 92 ac 3a ed 3d 4c 3b ae 4a 4b 3c
       0.0013309082 0.0013166177 0.003116484 0.012407942
000170 d4 b5 5e 3a 9b ec 0d ba 96 89 91 3a 61 2b 08 3b
       0.00084957224 -0.000541398 0.0011103626 0.002077781
000180 05 87 29 3c 49 66 95 3b ac 5e 13 bc 2e 3a dc 3a
       0.010347133 0.0045593125 -0.0089947395 0.0016802007
000190 0f 0b 50 3b 64 9f 36 ba 3d fa a4 bb ce 23 d0 38
       0.0031744873 -0.00069665 -0.0050347135 9.924882e-05
0001a0 57 4a ce 38 cb 7c 9f bc 8b 83 cb bc 93 4e 8e 3a
       9.836692e-05 -0.019468686 -0.024842998 0.0010857157
0001b0 c4 1f 22 bc e3 44 66 3b 1d 6e 2a 3c 89 15 75 bc
       -0.009895269 0.0035136275 0.01040223 -0.014958748
0001c0 f7 fc aa 3c 81 38 ae bc c5 35 50 bc 7d 62 b1 3c
       0.020872576 -0.021267178 -0.012708132 0.021653408
0001d0 3e 61 2d 3d 74 8a 1c bc cd 41 06 3c a9 69 90 3b
       0.042329066 -0.009554494 0.008194399 0.004407127
0001e0 92 b0 40 3b b9 d2 97 3a fc ed 94 ba 3e 5c 39 3a
       0.002940212 0.0011583186 -0.0011362429 0.0007070935
0001f0 e6 a0 c7 ba 59 35 bb ba 1f 35 aa bb c8 b1 c3 ba
       -0.0015230447 -0.0014282867 -0.005194321 -0.0014930302
000200 b8 29 8a bb 1d 95 99 bb 58 61 7a 3b 39 67 48 3b
       -0.004216399 -0.004686965 0.0038204994 0.0030579104
000210 8d 8a 3e bb 57 9b ce 38 68 d0 cc 38 e6 ef be b9
       -0.0029074282 9.85178e-05 9.766297e-05 -0.00036418362
000220 a1 6a 82 ba d6 ea a7 bb 51 65 c8 bb b0 ca 98 bb
       -0.0009949991 -0.00512443 -0.0061155935 -0.004662834
000230 b8 d7 89 ba 0c 57 d4 ba 93 cf ce ba ab 47 4a ba
       -0.001051656 -0.0016200258 -0.0015778415 -0.0007716368
000240 2a 11 4f bb 8b c8 54 3b 9e ee 4b 3b f3 0b cd 3b
       -0.0031595924 0.0032468166 0.0031117569 0.006257528
000250 61 eb 29 3a e3 d7 15 3a
       0.00064819126 0.00057160686

sqr_avg f4 [10, 15]
000000 a7 33 c8 39 ef 7b c1 3a 8b 52 08 3b a6 76 ae 3a
       0.00038185457 0.0014761667 0.0020801153 0.0013310506
000010 15 cc 0e 3b 20 cc e4 3a 98 27 4c 3b 8d 4a 7d 3a
       0.0021789123 0.0017455854 0.003115153 0.0009662293
000020 2b 77 1a 3b 7c 3b 99 39 4d 64 d9 3a 84 61 42 3b
       0.0023569565 0.00029226753 0.0016585678 0.0029660175
000030 f7 04 8c 3a e4 2d 0f 37 a1 b1 0c 37 13 05 04 39
       0.0010682632 8.534149e-06 8.386008e-06 0.00012590391
000040 a3 07 23 3a 9c d0 86 3a da d4 6c 3a 13 a6 98 3a
       0.00062190945 0.0010285559 0.0009034403 0.0011646174
000050 95 bf 8d 3a 7c 11 44 3a be 7f d5 3a a0 af b0 3a
       0.0010814542 0.0007479412 0.001628868 0.0013480075
000060 e7 5b b1 3a 68 f6 18 3a c7 2b 83 3a a0 a6 2c 3b
       0.0013531417 0.0005835057 0.0010007554 0.0026344433
000070 77 e2 d3 39 50 bd 9c 38 46 96 a0 39 ec 6a f3 3a
       0.00040413786 7.473922e-05 0.0003062954 0.0018571294
000080 10 cd aa 3a da ac c6 3a db 75 ae 3a 92 af 61 3a
       0.0013031084 0.0015157715 0.001331027 0.0008609231
000090 91 57 0f 3b 58 9b 25 3a 7c f4 e2 3a ea 59 81 39
       0.0021872262 0.00063173985 0.0017315294 0.0002467179
0000a0 4a 2b 5b 3a c7 ac 1d 3b 01 9c 6b 39 38 5a ab 36
       0.00083606376 0.0024059282 0.00022469462 5.1067e-06
0000b0 dd 62 a8 36 f2 ee 9b 39 b8 58 d6 3a ae 74 d2 39
       5.0182994e-06 0.00029741932 0.0016353345 0.00040141254
0000c0 f0 03 fe 38 f5 af 06 3a c3 3b d6 38 90 28 98 3a
       0.00012112397 0.0005137914 0.00010215447 0.0011608768
0000d0 02 7d 8b 3a 9e 83 b4 3a ce 57 8f 3a b7 89 00 3a
       0.0010642114 0.0013772135 0.0010936202 0.00049033336
0000e0 55 2d 29 3b 30 82 49 3a 70 57 18 39 f0 34 f9 37
       0.0025814374 0.0007686941 0.00014528423 2.9707764e-05
0000f0 0b dd da 3b 05 a1 c6 3b 2e 87 b0 3a a2 e7 f0 3a
       0.0066791824 0.0060616755 0.0013468021 0.0018379579
000100 ef a6 ba 3a e2 43 8a 3a 8a 37 df 3a 76 f6 ae 3a
       0.0014240424 0.0010548795 0.0017030102 0.0013348598
000110 85 21 65 3b af 7d 81 3a 11 bc 99 3b 56 e2 a2 3b
       0.0034962606 0.0009879376 0.0046916087 0.004970829
000120 6d bb 66 3a 4c 32 c1 3a e2 74 4c 38 52 8c 4c 3a
       0.00088017323 0.0014739721 4.8746246e-05 0.0007802892
000130 db 7b 4a 3c 6d a8 83 3b 95 e4 2d 3b ce 86 87 3b
       0.012358631 0.0040178807 0.002653395 0.004135943
000140 12 66 3c 3b 3f 81 00 3c 6f 1e a9 3a 29 80 96 3b
       0.0028747362 0.007843315 0.0012902747 0.0045929146
000150 e7 1c 85 3a 70 6c 6c 3b 65 bc 1a 3c d4 1f e1 3a
       0.0010155708 0.0036075376 0.009444331 0.0017175623
000160 5c a5 f7 37 12 23 f3 37 39 d0 91 39 3d 69 ac 3a
       2.9521696e-05 2.8984188e-05 0.00027811693 0.0013153922
000170 ab 34 8a 3a 18 04 62 3a 20 12 93 3a bd 61 33 3a
       0.0010544261 0.0008621826 0.0011220612 0.0006842872
000180 c5 04 c9 3a a4 6c 0a 3a dc aa d0 3a 52 c0 ad 39
       0.0015336504 0.0005280471 0.0015920061 0.0003314042
000190 3d 94 5e 3a 22 4b 0b 3b ff cf c3 39 7c 47 a1 36
       0.0008490717 0.00212545 0.00037348268 4.806496e-06
0001a0 0d 73 9e 36 e2 f8 94 3c 54 b8 0c 3d 1d 00 d1 3a
       4.7221606e-06 0.018185083 0.034355476 0.0015945468
0001b0 a1 76 2a 3b a2 41 03 3b 83 91 b3 3a c5 22 4e 3c
       0.002601065 0.0020028134 0.0013699982 0.012581532
0001c0 02 ee e6 3c 42 f8 45 3d 9e cb c4 3c f1 0a 5c 3d
       0.028189663 0.04833246 0.024022873 0.053721372
0001d0 36 a8 57 3d 15 db 3b 3d ac b3 1e 3c 12 be 77 3a
       0.052650653 0.04586323 0.009686392 0.0009450625
0001e0 6b 53 61 3a 91 44 15 3b 35 a3 04 3b 99 b8 b1 3a
       0.0008595499 0.0022776464 0.002023888 0.0013559043
0001f0 d2 8b 05 3b 43 e4 eb 3a 48 74 1a 3b 07 a2 0c 3a
       0.002037753 0.0017997104 0.0023567844 0.000536472
000200 7b 3d 09 3b bc 17 97 39 f3 e2 4b 3b 45 c3 9f 3a
       0.0020941186 0.00028818648 0.0031110614 0.0012188932
000210 5a 75 34 3b e6 59 1a 37 3d af 17 37 98 bc d8 39
       0.0027535767 9.200046e-06 9.041102e-06 0.00041339244
000220 6d 08 0f 3a 19 41 27 3a 56 f1 81 3a 98 3e 32 3a
       0.00054562726 0.0006380245 0.0009913843 0.00067994883
000230 45 7a 1d 3a 09 51 80 3a 2c c5 66 39 b7 94 d9 39
       0.0006007294 0.0009789775 0.00022007962 0.00041500267
000240 e4 93 cc 39 4d c8 bb 39 6c f7 9d 3a fc 95 57 3a
       0.000390201 0.00035816655 0.0012051887 0.00082239485
000250 af e7 56 39 47 d4 8d 37
       0.00020494939 1.690736e-05

grad_avg f4 [10]
000000 51 15 af 3a 5c 25 6d b9 72 c8 0d 3b b8 6a 84 bb
       0.0013357793 -0.00022615999 0.0021634367 -0.004041042
000010 0c 87 0f 3b c0 9a 4e bc 13 b0 76 ba c6 cd 7e 3c
       0.0021900563 -0.012610137 -0.00094103924 0.01555199
000020 1a b2 74 ba c3 c4 94 bb
       -0.00093344005 -0.0045400574

sqr_avg f4 [10]
000000 4a d6 48 3a 17 44 db 39 f2 5a f0 39 5a 74 7e 3a
       0.0007661326 0.00041821666 0.00045844127 0.0009706669
000010 f8 99 ca 39 9b af 2d 3b d0 39 e2 39 61 d5 5b 3b
       0.00038643158 0.0026502374 0.00043149153 0.0033543932
000020 01 82 58 3a 32 03 c1 39
       0.0008259118 0.0003681421

grad_avg f4 [10]
000000 b1 e2 2c 3b 06 d3 27 3b 75 d3 4b 3b a4 62 d7 ba
       0.0026380236 0.0025607958 0.003110138 -0.0016432595
000010 1d 20 23 bb 98 8b a3 ba e8 9a 0f 39 35 d6 19 bb
       -0.0024890967 -0.0012477515 0.0001369525 -0.0023473625
000020 9c fa df ba d6 ab 73 3b
       -0.0017088237 0.003718128

sqr_avg f4 [10]
000000 dd 6e 97 39 c6 5b 86 39 87 88 a7 39 78 5f bc 38
       0.00028883564 0.00025626848 0.00031954443 8.982321e-05
000010 08 ca 89 39 72 da 35 39 a8 24 79 39 5e c7 a2 39
       0.000262812 0.00017342882 0.00023760146 0.00031047588
000020 e1 98 54 39 f5 f7 9b 39
       0.00020274847 0.00029748646

grad_avg f4 [10]
000000 f4 47 f9 ba 06 ac 57 ba ef 5b 89 ba ce 74 3e 3a
       -0.0019018636 -0.00082272326 -0.0010479669 0.000726533
000010 00 89 7a b8 20 14 f6 bb d7 72 d6 3a 61 d6 00 3b
       -5.9732236e-05 -0.0075097233 0.0016361129 0.001965903
000020 5d 82 08 3b 6a 01 f8 b9
       0.0020829656 -0.000473033

sqr_avg f4 [10]
000000 e0 f3 91 39 5f fb 7c 39 d5 2d 63 39 48 d3 06 39
       0.00027838256 0.00024126236 0.00021665481 0.00012857944
000010 7c 3d 08 3a fb be 87 39 83 2f 36 39 af 2d 27 3a
       0.000519715 0.00025891498 0.00017374572 0.0006377352
000020 68 86 32 39 d6 ee 92 39
       0.00017025473 0.00028025237

grad_avg f4 [15, 10]
000000 02 ed ed 3a 2b ac 90 3b ad 82 59 3a 33 e3 63 ba
       0.0018152299 0.0044150553 0.0008297365 -0.0008693218
000010 f6 4d ef ba 40 e6 ad bb ce 79 05 3a 1d 34 6a ba
       -0.0018257487 -0.005306989 0.00050916977 -0.0008934157
000020 f0 7f cb ba 1f da 59 39 ea 6e 27 ba 70 6c b7 3a
       -0.0015525799 0.00020775989 -0.0006387072 0.0013994109
000030 7c 31 95 bb 00 23 8f 39 fd 34 90 ba 6e bc 54 3a
       -0.004553018 0.00027301162 -0.001100212 0.00081152364
000040 ab 32 4f bb e6 fc 70 3b fa 64 5f 3b a3 be 5a 3b
       -0.0031615894 0.0036771833 0.0034087286 0.0033377788
000050 3f aa 0d 3a b2 bc 88 38 1a 39 8e 3a 9b d5 37 bb
       0.0005404092 6.5201326e-05 0.0010850758 -0.0028050903
000060 80 02 06 bb 31 08 58 ba 83 13 e2 ba d4 d7 49 3a
       -0.0020448267 -0.00082409667 -0.0017248247 0.00076997024
000070 42 81 13 bc 3f 37 ce ba 78 9b 4d 3b da 81 eb 3b
       -0.009002985 -0.0015733017 0.0031373184 0.0071871104
000080 9a 31 3a b9 5f 0f 01 bc 91 6a c8 ba ed 1e 92 b7
       -0.0001775682 -0.0078772 -0.0015290548 -1.7418957e-05
000090 8d 75 36 b8 8a 17 09 3a f3 81 97 3b a8 60 da 38
       -4.350166e-05 0.0005229643 0.0046236455 0.00010413054
0000a0 e3 17 4c 3b e8 a5 a6 3b 9d 02 c3 ba 71 b8 9f bb
       0.0031142167 0.0050856955 -0.0014878098 -0.004874282
0000b0 ab 2a 49 ba bc 87 35 bb 90 71 4b bb 7a f1 02 bb
       -0.00076738995 -0.0027699312 -0.003104303 -0.0019980357
0000c0 da e1 5c bb 20 50 3d bb 68 03 31 3c d2 2d 0c 3c
       -0.0033703954 -0.002888687 0.010804035 0.008555846
0000d0 f8 06 04 bc ab 88 f3 3a 0d fd bd 38 86 34 3d 3b
       -0.008058302 0.0018580159 9.059357e-05 0.0028870418
0000e0 15 17 99 3b 42 69 ef bb a9 78 96 3b 83 20 0a bb
       0.004671941 -0.007306249 0.0045920205 -0.0021076507
0000f0 aa 8b 8b bb fb 33 42 3b 37 2e f0 3b e3 32 09 3c
       -0.0042585926 0.0029633034 0.007329728 0.008373949
000100 3e ab c0 bb f3 02 86 bb 8f c6 af 3b 06 cc 7e bb
       -0.0058797887 -0.004089707 0.005364246 -0.0038878932
000110 f4 97 4a bc 74 55 a4 bb 79 db b1 ba 4b 69 d8 b9
       -0.01236533 -0.0050150696 -0.0013569436 -0.0004127718
000120 5c 7b af 3b 02 fe 5a ba 65 fd 52 3b dd 23 6c bb
       0.0053552818 -0.000835389 0.0032194492 -0.0036032118
000130 38 7f d5 b9 de a1 f1 bb eb 90 9e 3b c1 0e 1a 3b
       -0.0004072131 -0.0073740324 0.004839053 0.002350733
000140 de d7 a6 3b 60 7f d3 3b a0 6e 01 3c 31 73 b9 3b
       0.0050916513 0.0064543933 0.00789991 0.005659484
000150 bf 17 6e bb 0e 36 3b 3b 23 92 cf 3b 5e 3c 20 bb
       -0.0036330072 0.0028566155 0.0063345595 -0.0024450044
000160 54 94 26 bc d4 e3 6b b9 f6 6b ca 3a f5 ec 0b ba
       -0.0101672 -0.00022496219 0.0015443552 -0.00053377385
000170 5e 32 ff b9 68 63 5a 3b 8f 03 35 bb 1c a8 4c bb
       -0.00048674917 0.003332341 -0.002762053 -0.003122813
000180 6a 14 32 39 17 63 8e 3b 3a a2 2d ba a4 53 da ba
       0.00016983008 0.0043453085 -0.00066236 -0.0016657007
000190 f3 89 53 3c 5f 2e d5 ba 03 c6 7f 3b a8 da ae bb
       0.012911308 -0.001626443 0.0039027936 -0.0053361244
0001a0 45 13 4d 3c 55 50 99 3b 93 9a 3a 3b a2 68 98 bb
       0.012516801 0.004678766 0.002847348 -0.004651145
0001b0 38 b4 01 bc 6b e8 38 bb 4c 7b 7c 3b 38 57 2f 3a
       -0.007916503 -0.0028214704 0.003852564 0.0006688717
0001c0 59 fb 09 36 d5 b7 38 bb 7c 65 c0 3b 4a 7b 84 3b
       2.0560894e-06 -0.0028185744 0.005871473 0.0040430175
0001d0 6b c3 b9 3a 83 44 4f bb cb ec 87 3b 25 6b aa ba
       0.0014172619 -0.003162653 0.004148101 -0.0013001902
0001e0 14 2a 99 ba 0e 1f 3e bb c2 b3 a9 ba 70 16 3e 39
       -0.0011685514 -0.002901021 -0.0012947249 0.0001812817
0001f0 16 af fd 3b e4 67 1f 3b 47 69 cb bb bd a5 35 3b
       0.007741819 0.0024323398 -0.0062076184 0.0027717196
000200 28 ea 05 bb 91 f7 0b 3b e4 db 18 ba 84 00 24 3b
       -0.0020433757 0.0021357278 -0.0005831106 0.0025024721
000210 75 46 a6 bb 52 72 93 3b 48 09 ef ba c9 dd 96 ba
       -0.005074317 0.004499712 -0.0018237019 -0.0011510189
000220 73 79 d6 ba f2 ea 2d 3b 58 82 5a bb ec de a9 3a
       -0.0016363099 0.0026537743 -0.003334185 0.0012960113
000230 44 83 97 bb 49 f2 ef 38 0c 14 27 3c 48 9b 61 3b
       -0.0046238024 0.00011441537 0.010197651 0.003442483
000240 0f 65 6f bb f7 68 50 bc b0 a8 7f 3b 88 2b c1 39
       -0.0036528741 -0.012720338 0.0039010458 0.00036844262
000250 01 6e d1 bb f4 b1 11 bb
       -0.0063912873 -0.0022231312

sqr_avg f4 [15, 10]
000000 b4 08 f9 39 2f 8a 03 3a 02 6c f9 39 9d 11 ff 38
       0.00047499465 0.00050178444 0.00047573453 0.00012162628
000010 36 6b 04 3a b6 a2 94 39 7a 3a d5 39 3d 89 c8 39
       0.0005051376 0.0002834999 0.00040670094 0.00038249223
000020 5f a3 e7 39 53 fb bc 39 d6 8b 3e 39 85 3c 1a 39
       0.00044181474 0.00036045405 0.00018171905 0.0001470913
000030 a6 f4 82 39 4d 01 4a 39 e4 e2 0b 39 85 56 06 39
       0.0002497781 0.00019264706 0.00013340596 0.00012811467
000040 c4 13 29 39 f7 e3 92 39 90 56 24 39 35 9b 53 39
       0.00016124459 0.00028017137 0.00015672506 0.00020180347
000050 ee 27 4b 39 78 9f 8e 39 e1 26 45 3a 21 b5 a5 39
       0.00019374464 0.00027203164 0.0007520747 0.00031606204
000060 ab 95 f2 39 68 65 c0 39 c3 28 f6 39 c6 58 01 3a
       0.00046269348 0.00036696647 0.00046951146 0.0004934188
000070 b0 86 2b 3a e7 f3 b9 39 5e f7 b9 39 72 04 0a 3a
       0.00065432023 0.0003546767 0.00035470253 0.00052649446
000080 6e d3 46 3a f8 85 97 3a 17 80 b3 39 4f 62 6a 39
       0.0007584606 0.0011560312 0.00034236975 0.00022352602
000090 04 14 eb 39 2a 0d 56 3a f2 b3 b6 39 79 f4 07 3a
       0.00044837606 0.0008165414 0.00034847815 0.00051862706
0000a0 c2 c7 28 3a 66 0b 83 3a 0b b1 b6 39 4f fe d9 39
       0.00064384576 0.0009997904 0.00034845652 0.0004157894
0000b0 ae b0 0a 3a ab 50 30 3a 3f 95 39 3a e1 1e d5 39
       0.00052906096 0.00067258877 0.00070794293 0.00040649532
0000c0 53 94 2c 3a b7 bd 0e 3a 46 73 93 3a 38 22 91 3a
       0.00065833813 0.000544514 0.0011249564 0.001107282
0000d0 b8 53 6b 3a 25 3b 0c 3b 28 28 19 3a 30 59 89 39
       0.00089770136 0.0021397558 0.00058424706 0.00026197126
0000e0 cb a5 90 3a 53 34 10 3a 0f db b0 39 16 e2 68 3a
       0.0011035738 0.0005500961 0.00033732547 0.0008883787
0000f0 b7 5c 8a 3a 67 82 11 3a 57 f4 b6 3a de 80 90 3a
       0.0010556196 0.00055507425 0.0013958317 0.0011024734
000100 f4 68 6c 3a 34 22 92 3a 31 0e 98 3a 24 58 0f 3a
       0.0009018325 0.0011149109 0.0011600909 0.0005468151
000110 76 88 c2 3a 1d 70 dc 39 7d dc e3 38 43 f4 f3 39
       0.0014841694 0.000420452 0.000108652726 0.0004653056
000120 7a f6 f0 39 b6 de ae 3a 07 56 c8 39 6d 77 90 39
       0.00045960007 0.001334152 0.00038211068 0.000275548
000130 ba 76 7b 39 ed eb 3f 3a 37 d5 fb 39 72 e8 c0 39
       0.00023981454 0.00073212275 0.00048033308 0.0003679428
000140 3e ef 10 3a f4 d6 1d 3a 5a b9 06 3a 88 df 64 39
       0.0005528814 0.0006021105 0.0005139314 0.00021827046
000150 d6 ad 0b 3a 36 d3 ac 39 d1 63 0b 3a b2 a8 c5 39
       0.0005328333 0.0003296376 0.0005317303 0.00037700456
000160 2e fb 34 3a 8c 55 6f 39 32 2e 10 39 ba be 26 39
       0.0006903884 0.00022824685 0.00013750119 0.00015902045
000170 f8 97 02 39 75 bc f2 39 5d 88 fa 38 be 4d 31 39
       0.00012454379 0.00046298248 0.000119463286 0.00016908997
000180 d1 fd ba 38 8d 4c 0d 39 64 f3 5d 38 96 c8 a8 38
       8.916448e-05 0.00013475325 5.291718e-05 8.048226e-05
000190 da f7 da 3a 24 1f c6 3a 3a af 0c 3b 14 ac 78 3b
       0.0016705946 0.0015115482 0.0021466748 0.0037944363
0001a0 c8 aa b4 3a 1a 1d c7 3a 14 95 04 3b 13 3c 8e 3a
       0.0013783807 0.0015191168 0.002023046 0.0010851644
0001b0 5c f5 d8 3a 28 84 24 3a 17 68 e4 39 aa 66 00 3a
       0.0016552615 0.00062757963 0.00043565102 0.00048981106
0001c0 29 0e 02 3a e1 89 e8 39 b4 33 12 3a 68 35 04 3a
       0.00049612165 0.00044353216 0.00055771624 0.00050433585
0001d0 05 47 9e 39 0b 06 11 3a 81 4c 9c 39 b4 65 d3 39
       0.00030189022 0.00055322115 0.00029811639 0.0004032083
0001e0 0c 87 22 3a d8 85 69 3a 36 a6 75 3a 0d f5 4f 3a
       0.0006199933 0.0008908189 0.00093707757 0.0007932939
0001f0 1f d8 4f 3a db 15 1a 3a 54 8a 67 3a dc a6 25 3a
       0.0007928628 0.00058778905 0.0008832563 0.00063191145
000200 ee 0c 4c 3a c3 75 92 3a 62 53 f6 38 40 64 22 39
       0.0007783909 0.0011174012 0.00011745725 0.0001548687
000210 2b de 8a 39 79 ea ef 38 0e 1d 8b 39 a6 f5 83 39
       0.0002648694 0.00011440082 0.00026533793 0.0002516929
000220 5d c9 73 39 c9 13 3b 39 bc 8f d5 39 5f 67 56 39
       0.000232493 0.0001784108 0.00040733616 0.00020447139
000230 8c 89 9a 3a 64 8d 84 3a f6 74 be 3a 82 a7 ff 39
       0.001179026 0.0010112938 0.0014530707 0.00048762193
000240 05 01 71 3a fc 24 a9 3a e8 bd 91 3a 39 d9 4b 3a
       0.00091935723 0.0012904699 0.0011119219 0.0007776204
000250 ff 07 2d 3a e3 7d b6 39
       0.0006600618 0.00034807538

grad_avg f4 [15]
000000 44 e4 b1 ba 39 4e ce ba 50 b3 7a ba e8 49 f3 ba
       -0.0013572057 -0.0015739865 -0.0009563463 -0.0018561454
000010 60 63 2a 3b 18 ff 89 ba 0c db 5b ba 14 eb eb ba
       0.0025999174 -0.0010528294 -0.00083868275 -0.0017999136
000020 16 4e f4 3a e4 c3 60 ba 59 94 09 bc 76 7d 41 bb
       0.0018638994 -0.0008574112 -0.008397185 -0.0029524243
000030 e9 49 89 bb b8 2c 09 bb 26 ce c5 3a
       -0.004189719 -0.0020931195 0.0015091344

sqr_avg f4 [15]
000000 9f ae e9 38 65 bf 8b 38 52 9b e1 38 fa e6 35 39
       0.000111428315 6.6636865e-05 0.00010757767 0.0001734755
000010 8c 46 f0 38 78 bc 99 39 47 37 0d 39 13 7a 40 39
       0.00011457232 0.00029322854 0.000134674 0.00018356023
000020 99 63 2b 39 c5 a4 06 38 9e e4 b9 39 cc d8 02 39
       0.00016344934 3.2101543e-05 0.00035456283 0.00012478529
000030 0b 78 61 39 f8 10 cf 38 73 54 93 39
       0.00021502392 9.87369e-05 0.00028100944

grad_avg f4 [15]
000000 56 86 47 3a 5c 73 1b 39 98 e4 82 ba 64 df 90 3a
       0.0007611265 0.00014824927 -0.0009986339 0.0011052904
000010 09 f1 6e 3a 22 c5 f4 3a db ab e8 3a f3 1f 9b 3a
       0.00091148965 0.0018674473 0.0017751412 0.0011835083
000020 30 8c 7a b7 a9 9e 75 ba 32 d2 73 bb 2b 31 9a ba
       -1.4933801e-05 -0.00093696505 -0.0037204144 -0.0011763921
000030 d8 35 90 3a d0 cc 06 bb 85 08 8d 3b
       0.0011002375 -0.0020568855 0.004303994

sqr_avg f4 [15]
000000 fd 7a 97 38 35 18 5d 38 7b 30 fa 38 7f c7 c8 38
       7.2231494e-05 5.271305e-05 0.00011929959 9.573902e-05
000010 ee 75 70 38 2f 59 ee 38 77 0a ee 38 03 03 e8 38
       5.733029e-05 0.00011365336 0.000113506736 0.00011063183
000020 84 7e fb 38 9a f5 32 38 da 4a 27 39 40 ce 99 38
       0.00011992178 4.266724e-05 0.00015954245 7.3340256e-05
000030 51 ec b2 38 ff 8f 5e 38 c4 2d b8 38
       8.531719e-05 5.306303e-05 8.782328e-05
