nbs/models/hot-model.pth (torch, 277939 bytes, 84 tensors)

linear1.weight f4 [64, 15]
0.19095047 0.21520676 -0.06425096 0.23258685 -0.06015655 0.049426515 -0.13131861 0.1455502
0.2248081 -0.19965327 0.22814152 0.050064772 0.18617252 0.038301177 0.13016346 -0.036670953
0.19862682 0.041874737 -0.1174888 0.069476694 -0.11290762 -0.028892813 -0.10240957 0.16297661
-0.21089044 -0.11572446 -0.07916055 -0.15603782 0.026793128 -0.250285 0.22790259 -0.22782117
0.2017938 0.045867853 -0.08158207 0.15891936 0.042220738 0.20661698 0.036331605 -0.07677667
0.06416101 -0.07331829 0.10978768 0.22538476 0.14810336 -0.11556523 0.14417726 0.04575679
0.13064986 -0.15747035 -0.2578415 -0.10205207 -0.20122363 0.21115634 0.07192156 0.1086896
0.08153937 -0.008823988 0.19570437 -0.19013822 0.020576453 -0.16867581 0.07706711 -0.09377052
0.077297926 -0.058297276 0.2248004 -0.14206 -0.16438432 -0.14825408 0.2334181 0.08907332
0.24183191 -0.20486683 -0.2496427 -0.20328178 -0.17772554 0.107959464 0.09412083 0.21781816
-0.13116772 -0.1836373 0.124485634 -0.08808774 0.1584356 -0.059783056 0.14826342 -0.19377573
-0.13042344 0.07825793 0.05812733 -0.064602695 0.14478914 0.16412087 -0.1949897 -0.14343736
0.23645137 -0.07753668 -0.101833105 -0.24832664 -0.14089265 0.073162474 -0.044002686 -0.18889204
0.0046957894 -0.17626959 -0.2215976 -0.12361698 -0.21402289 -0.14591525 0.27328032 0.07614847
0.07475669 -0.23727693 -0.17469122 -0.08590309 0.038900524 -0.21114312 -0.097159244 -0.13949277
0.0009728135 -0.09595891 -0.027332725 -0.17148077 -0.18872891 -0.16147836 -0.09476324 -0.20122157
0.22090751 -0.041056108 0.22224109 0.08303413 -0.21226233 0.16998088 -0.07611486 -0.09654475
-0.21261443 -0.258157 0.06540619 -0.05295594 0.10350461 -0.20680685 0.19864935 -0.19367751
-0.03741224 0.05873475 0.13170297 0.20407082 0.23315132 -0.20347002 0.059798565 -0.115453124
-0.028991675 -0.19952264 0.2351034 -0.19535166 0.13700423 0.07984858 0.09044138 -0.14608397
0.22596964 0.043181982 0.028442284 -0.22552781 0.112239376 -0.044056952 -0.115831695 0.21582456
0.046976846 -0.14612381 -0.13792022 -0.014406244 0.14510404 -0.06525542 -0.14015476 -0.090845995
-0.19828534 0.08900177 0.19071156 -0.25187477 0.05784895 0.13795884 0.045010537 -0.09593745
0.13357356 0.13439271 0.103217825 -0.041474003 -0.0724738 0.028631909 -0.042949148 -0.075294994
0.15618801 0.2185152 -0.0273585 -0.064239606 0.0005788318 -0.012440944 0.058647197 0.07621993
-0.23266238 -0.092885576 0.22819322 0.096372925 -0.0009435386 -0.14615794 -0.1589386 -0.22925422
-0.08256499 0.08850927 0.15426427 0.10554788 -0.23501658 -0.1506878 -0.04940948 0.24383684
0.010055647 -0.08021214 0.12406837 -0.09176557 -0.1793492 0.17865455 -0.1091181 -0.065869085
-0.27242553 0.17687336 0.20345509 0.10290901 -0.17326415 -0.24555115 -0.20508239 0.1977799
0.13272427 0.20975854 0.13297977 0.06988544 0.00057441375 -0.19078864 -0.21957256 -0.23931512
0.105375536 -0.124839835 -0.051628668 -0.14935869 -0.046160676 -0.18096411 -0.16722837 0.08639881
-0.08213901 0.15530765 -0.07887252 -0.19014998 -0.048495024 -0.119286515 -0.07319663 -0.23897319
00000000: 8588 433e 295f 5c3e 0296 83bd 3f2b 6e3e
00000010: b766 76bd 7573 4a3d 6378 06be 1d0b 153e
00000020: 1834 663e e871 4cbe ee9d 693e b810 4d3d
00000030: 02a4 3e3e b2e1 1c3d 9249 053e 4834 16bd
00000040: d464 4b3e d884 2b3d f89d f0bd cc49 8e3d
00000050: 1c3c e7bd 9fb0 ecbc 1cbc d1bd 57e3 263e
00000060: aaf3 57be f200 edbd ed1e a2bd 61c8 1fbe
00000070: 437d db3c 5b25 80be 4c5f 693e f449 69be
00000080: 09a3 4e3e eedf 3b3d 8014 a7bd c2bb 223e
00000090: a7ef 2c3d 6793 533e 73d0 143d 163d 9dbd
000000a0: d966 833d e627 96bd 5dd8 e03d 43cb 663e
000000b0: 68a8 173e 77ad ecbd 34a3 133e 796b 3b3d
000000c0: 14c9 053e e83f 21be cd03 84be ad00 d1bd
000000d0: 910d 4ebe 5e39 583e 9c4b 933d a798 de3d
000000e0: 1dfe a63d 7d92 10bc ba66 483e 98b3 42be
000000f0: f38f a83c 5ab9 2cbe 5cd5 9d3d c20a c0bd
00000100: 604e 9e3d 20c9 6ebd 1332 663e 2d78 11be
00000110: 5d54 28be ebcf 17be 2805 6f3e 136c b63d
00000120: c9a2 773e 9cc8 51be 56a2 7fbe 1929 50be
00000130: affd 35be da19 dd3d 6cc2 c03d b90b 5f3e
00000140: d550 06be 6b0b 3cbe 53f2 fe3d 5867 b4bd
00000150: f13c 223e 14df 74bd 5ed2 173e 256d 46be
00000160: b98d 05be b245 a03d ec16 6e3d 6b4e 84bd
00000170: 9b43 143e 4d0f 283e 61ab 47be 3ee1 12be
00000180: 4f20 723e 8dcb 9ebd e08d d0bd 5749 7ebe
00000190: 2a46 10be 35d6 953d 293c 34bd ea6c 41be
000001a0: 23df 993b 0480 34be 7bea 62be e62a fdbd
000001b0: d128 5bbe cf6a 15be 66eb 8b3e bbf3 9b3d
000001c0: 091a 993d b9f8 72be 41e2 32be f6ed afbd
000001d0: 2856 1f3d e735 58be 6dfb c6bd 31d7 0ebe
000001e0: 6904 7f3a 1b86 c4bd e1e8 dfbc a898 2fbe
000001f0: 2742 41be 955a 25be 3b13 c2bd 070d 4ebe
00000200: 9435 623e 732a 28bd 2b93 633e cc0d aa3d
00000210: 4c5b 59be 780f 2e3e 1ce2 9bbd 41b9 c5bd
00000220: 99b7 59be 282d 84be aef3 853d 54e8 58bd
00000230: 3afa d33d 2dc5 53be bc6a 4b3e 6653 46be
00000240: 943d 19bd d993 703d 25dd 063e f1f7 503e
00000250: 38bf 6e3e 725a 50be 57ef 743d b072 ecbd
00000260: f37f edbc aa4f 4cbe f2be 703e 440a 48be
00000270: d64a 0c3e a787 a33d 5539 b93d 0997 15be
00000280: 9664 673e 97df 303d cbff e83c c3f0 66be
00000290: c2dd e53d 1075 34bd 2b39 edbd 1d01 5d3e
000002a0: cb6a 403d 7ba1 15be f53a 0dbe 2b08 6cbc
000002b0: 2796 143e a2a4 85bd bb84 0fbe 770d babd
000002c0: 500b 4bbe 8f46 b63d e449 433e bbf5 80be
000002d0: 05f3 6c3d 1545 0d3e f85c 383d db7a c4bd
000002e0: 82c7 083e 3e9e 093e de63 d33d a5e0 29bd
000002f0: 256d 94bd 778d ea3c 72eb 2fbd 4334 9abd
00000300: c0ef 1f3e 73c2 5f3e ef1e e0bc 0e90 83bd
00000310: bfbc 173a 1ad5 4bbc 0b38 703d 3219 9c3d
00000320: 0c3f 6ebe cb3a bebd 7cab 693e 2b5f c53d
00000330: ce57 77ba 6daa 15be cdc0 22be 9ec1 6abe
00000340: d517 a9bd 5944 b53d 74f7 1d3e 7d29 d83d
00000350: 30a8 70be e74d 1abe 9861 4abd 5db0 793e
00000360: 71c0 243c 4346 a4bd 8f17 fe3d 96ef bbbd
00000370: 51a7 37be 38f1 363e 4f79 dfbd 5fe6 86bd
00000380: 5c7b 8bbe 4a1e 353e 8856 503e f6c1 d23d
00000390: 286c 31be c371 7bbe 1e01 52be d086 4a3e
000003a0: dfe8 073e f1ca 563e d92b 083e 1920 8f3d
000003b0: 4194 163a 195e 43be a1d7 60be 060f 75be
000003c0: 21cf d73d 07ac ffbd 9578 53bd 7cf1 18be
000003d0: fa12 3dbd a84e 39be ea3d 2bbe dcf1 b03d
000003e0: 7f38 a8bd f808 1f3e ea87 a1bd adb6 42be
000003f0: b8a2 46bd 7d4c f4bd 1de8 95bd 63b5 74be

linear1.bias f4 [64]
-0.19336894 -0.0057788333 -0.1958956 -0.05313892 -0.069558725 0.22384393 0.08191889 -0.057840075
0.048691228 -0.07818384 0.10548879 0.11483012 0.08673152 -0.10209964 0.2207299 -0.04023331
-0.10619949 0.17138666 0.20582949 0.25003988 0.077064134 -0.08755461 0.13698897 0.21843919
-0.26125592 -0.03012563 -0.16511881 0.035077598 0.10575072 -0.061448835 -0.026028706 0.122979514
-0.045207214 -0.21638995 0.21035565 -0.12910923 -0.020533586 0.018864373 -0.0114831375 -0.22821388
0.11280981 -0.11463096 -0.14695646 0.06572286 -0.14785787 -0.10888199 -0.07071237 -0.088298425
-0.10259063 -0.07927116 0.06869624 -0.20983958 -0.15656817 0.007912843 0.041380886 0.14221254
-0.17876782 0.08255614 0.14301021 0.12526345 -0.24306263 -0.1038542 -0.22270834 -0.16974202
00000000: 8202 46be 5e5c bdbb db98 48be 32a8 59bd
00000010: ce74 8ebd 5837 653e 17c5 a73d b7e9 6cbd
00000020: 7470 473d d91e a0bd 820a d83d 0e2c eb3d
00000030: 4ca0 b13d 9e19 d1bd 0507 623e afcb 24bd
00000040: 1e7f d9bd fc7f 2f3e f7c4 523e 3a05 803e
00000050: cdd3 9d3d d54f b3bd d646 0c3e 86ae 5f3e
00000060: 56c3 85be 06ca f6bc e814 29be 87ad 0f3d
00000070: d593 d83d c6b1 7bbd 273a d5bc afdc fb3d
00000080: 332b 39bd 5495 5dbe 7967 573e 3635 04be
00000090: 0d36 a8bc 7589 9a3c c523 3cbc e6b0 69be
000000a0: d408 e73d a3c3 eabd c17b 16be b599 863d
000000b0: 0e68 17be 85fd debd a6d1 90bd ced5 b4bd
000000c0: 091b d2bd eb58 a2bd 9db0 8c3d 30e0 56be
000000d0: 6853 20be dea4 013c 017f 293d 2aa0 113e
000000e0: e90e 37be 3213 a93d 4571 123e 1045 003e
000000f0: 69e5 78be 83b1 d4bd a80d 64be dad0 2dbe

linear2.weight f4 [128, 64]
0.07482833 -0.026530964 0.05607108 -0.07509577 0.02368738 -0.080313794 0.06477995 -0.050089456
-0.033463974 -0.10613049 0.0065760785 0.119997576 0.06693482 -0.069168136 -0.00469182 -0.01078976
-0.09913769 0.10700932 -0.0076387534 0.022323402 -0.047441825 -0.05808079 0.016723974 0.047886234
0.029745089 -0.051706653 0.11277318 -0.01663201 -0.07263697 -0.058094542 0.11773026 0.0017772627
-0.017520308 -0.04779625 -0.038392913 -0.10370376 -0.0946491 0.07767426 0.11084739 0.12235617
-0.08703185 0.07210622 -0.075449474 0.0802641 0.08988833 0.08877384 0.09203723 0.07984817
0.0045319535 0.049588576 -0.046272542 0.048705008 -0.036048017 -0.008507045 -0.10556368 -0.031904187
-0.06901793 -0.037765447 -0.080691054 -0.11380808 0.016285276 0.08471296 0.112852275 0.07176258
-0.06747002 -0.12182324 0.050336286 0.06449059 -0.102910504 0.051587034 0.11002565 0.014420903
-0.07398801 0.10624713 0.05618377 0.08048699 -0.08109624 0.071651265 -0.0769271 0.123933665
-0.05738062 0.07727566 0.032125443 0.034940783 -0.018948358 0.053977232 -0.053966407 -0.10952302
-0.04763741 0.09509263 -0.023547899 0.041205823 -0.044051602 0.08524195 0.082205094 0.053302962
-0.07079482 -0.10716017 0.0026421885 -0.07272083 0.10635784 -0.11586229 0.047528896 0.12455896
0.057521123 0.050019905 -0.12168993 0.11786244 -0.021309994 -0.10776259 0.13483939 -0.052257106
-0.0053887684 0.11457414 -0.08362997 -0.08469501 0.023860985 -0.012085497 0.0341362 -0.10477147
-0.0007924819 -0.04886469 -0.062926345 -0.12473935 0.064743966 0.018566392 -0.10150294 0.09565349
0.038143236 0.029459272 -0.06960328 0.023776943 0.121171944 0.07083057 -0.09877981 0.11257823
0.009737392 0.06546503 0.10612171 0.10018419 -0.096717715 0.101584636 -0.09016129 0.014191162
-0.0901466 -0.02286102 -0.017536331 -0.022632025 -0.017200612 0.0052888743 0.12886925 0.073841296
0.07084433 0.051335808 0.09124218 -0.008742254 0.0014857966 0.034911763 -0.11041919 -0.106056914
0.024907907 -0.043555804 -0.0029180837 -0.02735396 0.016299589 0.06801685 -0.044512406 0.098372884
0.1076917 -0.10098342 -0.10071925 -0.09605267 -0.06408256 -0.04052827 -0.014498206 -0.026703754
-0.07271626 -0.04651916 -0.03992094 0.12468547 -0.04270747 -0.089230396 0.046270188 0.0015424516
0.09647658 0.07223047 0.12125376 -0.08295421 0.072375976 0.10771068 -0.06749546 0.11267543
0.0838628 -0.0006815081 0.06852577 -0.044389248 -0.10907046 0.036470175 0.044139277 -0.08047575
0.05250245 -0.10774873 0.10099645 0.12262269 0.030728586 -0.08087538 0.068028055 0.009344249
0.03313134 0.038582332 0.10787914 -0.04294272 -0.03246694 0.028746001 0.0040831543 0.09242058
-0.06935396 0.001718277 0.023867784 -0.033011187 0.08743451 0.012529771 -0.1210389 -0.004196708
-0.06504642 0.0013254762 -0.016320668 -0.119284555 -0.017073078 -0.005381444 -0.046252463 0.11506453
-0.03670256 0.081513636 0.030192781 -0.10976174 0.026788915 0.09416949 -0.075912714 -0.083186366
0.13089529 0.104236 -0.07488434 0.06437596 -0.010086413 -0.12661467 0.01689784 0.03155992
-0.036369182 0.045290083 -0.111775905 0.074405834 0.10611284 0.06647462 0.027947797 0.037254017
00000000: 983f 993d 7757 d9bc caaa 653d d0cb 99bd
00000010: 090c c23c 8f7b a4bd 5aab 843d 9a2a 4dbd
00000020: 8511 09bd f15a d9bd 257c d73b 4ac1 f53d
00000030: 1f15 893d 06a8 8dbd d7bd 99bb 89c7 30bc
00000040: b408 cbbd b427 db3d 824e fabb 91df b63c
00000050: 5c52 42bd 1fe6 6dbd b700 893c 5b24 443d
00000060: f9ab f33c 5bca 53bd a0f5 e63d da3f 88bc
00000070: b1c2 94bd 8bf4 6dbd 901c f13d 0af3 e83a
00000080: c086 8fbc 00c6 43bd e341 1dbd a362 d4bd
00000090: 63d7 c1bd af13 9f3d f503 e33d df95 fa3d
000000a0: c13d b2bd 6dac 933d 4185 9abd 8161 a43d
000000b0: 5f17 b83d 0fcf b53d 047e bc3d 7087 a33d
000000c0: c880 943b 641d 4b3d 4788 3dbd e77e 473d
000000d0: 16a7 13bd 2261 0bbc c531 d8bd f7ad 02bd
000000e0: 4659 8dbd f1af 1abd 5a41 a5bd 3614 e9bd
000000f0: b368 853c fd7d ad3d 181f e73d 42f8 923d
00000100: b92d 8abd 767e f9bd 6c2d 4e3d a413 843d
00000110: bec2 d2bd ed4c 533d 2155 e13d a745 6c3c
00000120: 0787 97bd 1898 d93d f420 663d 5dd6 a43d
00000130: c915 a6bd e6bd 923d f58b 9dbd efd0 fd3d
00000140: f107 6bbd b442 9e3d f895 033d 111e 0f3d
00000150: 9639 9bbc 3b17 5d3d e10b 5dbd 9b4d e0bd
00000160: 721f 43bd edbf c23d 86e7 c0bc 70c7 283d
00000170: 746f 34bd 5593 ae3d 255b a83d 3554 5a3d
00000180: e0fc 90bd cb76 dbbd 9128 2d3b a9ee 94bd
00000190: 24d2 d93d 3549 edbd a9ad 423d c518 ff3d
000001a0: 459b 6b3d ace1 4c3d 9238 f9bd dd61 f13d
000001b0: 4c92 aebc a2b2 dcbd 5613 0a3e 8c0b 56bd
000001c0: 4494 b0bb d9a5 ea3d 3146 abbd 9474 adbd
000001d0: 1d78 c33c 4002 46bc 66d2 0b3d 6d92 d6bd
000001e0: 8fbe 4fba 5726 48bd 87df 80bd 5877 ffbd
000001f0: 7c98 843d 8c18 983c c6e0 cfbd fae5 c33d
00000200: 153c 1c3d 9254 f13c 2a8c 8ebd ddc7 c23c
00000210: ff28 f83d 9e0f 913d 124d cabd 6a8f e63d
00000220: 9589 1f3c 8812 863d 5756 d93d 5e2d cd3d
00000230: f013 c6bd 9b0b d03d 7ba6 b8bd 0c82 683c
00000240: c89e b8bd 0947 bbbc 5aa8 8fbc cc66 b9bc
00000250: 4ce8 8cbc 4b4e ad3b 4df6 033e 1b3a 973d
00000260: d516 913d 7f45 523d 2edd ba3d ac3b 0fbc
00000270: 10bf c23a a3ff 0e3d 7523 e2bd 5e34 d9bd
00000280: ab0b cc3c 9267 32bd 523d 3fbb 6915 e0bc
00000290: b786 853c 6b4c 8b3d a452 36bd b977 c93d
000002a0: 778d dc3d 65d0 cebd e545 cebd 43b7 c4bd
000002b0: b83d 83bd f900 26bd e289 6dbc d5c1 dabc
000002c0: 43ec 94bd e08a 3ebd 2484 23bd 185b ff3d
000002d0: 07ee 2ebd 6dbe b6bd cf85 3d3d 162c ca3a
000002e0: 8395 c53d 92ed 933d e453 f83d e6e3 a9bd
000002f0: db39 943d 6b97 dc3d 0f3b 8abd 60c2 e63d
00000300: 42c0 ab3d 3ca7 32ba 3d57 8c3d 80d1 35bd
00000310: 5560 dfbd c061 153d 63cb 343d 78d0 a4bd
00000320: cf0c 573d 5eab dcbd 3ad7 ce3d 9b21 fb3d
00000330: 84ba fb3c fea1 a5bd 4b52 8b3d 9f18 193c
00000340: bab4 073d 8208 1e3d bdef dc3d b5e4 2fbd
00000350: 0efc 04bd bc7c eb3c fbcb 853b 0047 bd3d
00000360: 7309 8ebd cf37 e13a 5f86 c33c bd36 07bd
00000370: dd10 b33d ab49 4d3c 3ee3 f7bd 8a84 89bb
00000380: 0f37 85bd 9abb ad3a ecb2 85bc 764b f4bd
00000390: d7dc 8bbc d356 b0bb 3973 3dbd f4a6 eb3d
000003a0: 6c55 16bd 9ff0 a63d da56 f73c c3ca e0bd
000003b0: 6d74 db3c efdb c03d 2078 9bbd 9d5d aabd
000003c0: 6a09 063e af79 d53d f65c 99bd 8bd7 833d
000003d0: 7b41 25bc 47a7 01be 576d 8a3c fa44 013d
000003e0: daf7 14bd 1882 393d c4ea e4bd 1662 983d
000003f0: b051 d93d d823 883d c7f2 e43c ab97 183d

linear2.bias f4 [128]
0.07719841 -0.067002244 -0.011536289 0.012090712 0.08655883 0.06700851 0.12501574 -0.07935652
-0.0071676862 -0.009972183 0.106463015 0.11416476 0.028259983 -0.10535064 -0.09779103 0.014285915
-0.10876614 -0.05577409 -0.09090886 0.069391884 -0.014490645 -0.10291998 0.09126912 -0.12377123
-0.011411349 0.12756932 0.065335505 -0.09614372 0.020694071 -0.031225167 0.057285044 0.11945502
0.10934802 -0.00957869 0.05601104 -0.12042014 0.09981554 0.07460204 -0.093289495 -0.040010434
-0.0512975 -0.077047616 0.053876378 -0.03240782 0.053660706 -0.03732592 0.09897173 -0.03869066
-0.015798967 -0.03823753 0.009714331 -0.048849694 -0.08483727 -0.12457875 0.08260218 0.01599221
-0.078957155 0.063016824 0.016687704 -0.048052356 -0.0068469956 0.009706253 0.088054776 -0.104507625
-0.092380874 -0.096961245 -0.110162854 0.0006309737 0.06995891 0.02812104 0.05176537 0.023795318
0.005813627 -0.114719294 0.119010106 0.12188272 0.003370167 0.017118335 0.019468343 0.12783311
-0.0025501363 -0.01778718 -0.05967553 0.026665863 0.07143155 -0.11515986 0.045720913 0.025681177
0.05914721 0.05508721 -0.028485807 0.017269688 -0.07913274 0.06885825 -0.10251128 -0.114065915
-0.085302554 -0.06891347 0.005392911 0.08969928 -0.022089534 0.088593334 -0.02414484 0.114044346
0.08520724 0.0700377 0.043464437 -0.0823706 0.1319718 -0.121184774 -0.08807424 -0.06788631
-0.035040848 0.055641368 0.02383325 -0.10370494 0.11434252 0.11209979 0.074711114 -0.12639911
0.06600564 0.03284291 -0.010520648 -0.09503155 0.11714157 -0.03585074 -0.09780175 0.097326204
00000000: 331a 9e3d 7938 89bd b402 3dbc 1f18 463c
00000010: c245 b13d c23b 893d 2004 003e ac85 a2bd
00000020: e9de eabb 5e62 23bc 4809 da3d 37cf e93d
00000030: 7b81 e73c 14c2 d7bd aa46 c8bd 780f 6a3c
00000040: c8c0 debd 5f73 64bd 6d2e babd 551d 8e3d
00000050: 2c6a 6dbc b6c7 d2bd 4eeb ba3d c57b fdbd
00000060: abf6 3abc 88a1 023e 9fce 853d 00e7 c4bd
00000070: 9d86 a93c eccb ffbc b9a3 6a3d d5a4 f43d
00000080: dbf1 df3d f0ef 1cbc d56b 653d d69e f6bd
00000090: 176c cc3d f4c8 983d 900e bfbd fbe1 23bd
000000a0: 541d 52bd 24cb 9dbd 7aad 5c3d 10be 04bd
000000b0: 54cb 5b3d 10e3 18bd b1b1 ca3d 197a 1ebd
000000c0: d66c 81bc f59e 1cbd db28 1f3c 9e16 48bd
000000d0: 2abf adbd 2523 ffbd 552b a93d 1802 833c
000000e0: 4ab4 a1bd f70e 813d a7b4 883c 8cd2 44bd
000000f0: c35c e0bb fa06 1f3c 1056 b43d 1808 d6bd
00000100: 2f32 bdbd 9e93 c6bd 109d e1bd ee67 253a
00000110: 9e46 8f3d 185e e63c ed07 543d 66ee c23c
00000120: 3d80 be3b f3f1 eabd 92bb f33d a69d f93d
00000130: 05de 5c3b c03b 8c3c 137c 9f3c afe6 023e
00000140: 3020 27bb 6cb6 91bc 546e 74bd 5e72 da3c
00000150: b44a 923d efd8 ebbd da45 3b3d 5561 d23c
00000160: 5844 723d 20a3 613d 115b e9bc 2979 8d3c
00000170: 5910 a2bd 8e05 8d3d 6ff1 d1bd 649b e9bd
00000180: 1bb3 aebd 8122 8dbd 04b7 b03b 42b4 b73d
00000190: 1cf5 b4bc 6c70 b53d 66cb c5bc 1590 e93d
000001a0: 2281 ae3d ed6f 8f3d c407 323d ebb1 a8bd
000001b0: 9e23 073e b92f f8bd 4460 b4bd fa07 8bbd
000001c0: fe86 0fbd 34e8 633d f33d c33c 4163 d4bd
000001d0: 692c ea3d 9394 e53d 2402 993d c56e 01be
000001e0: f72d 873d 4a86 063d cc5e 2cbc e79f c2bd
000001f0: ebe7 ef3d 3ad8 12bd 494c c8bd f652 c73d

linear3.weight f4 [64, 128]
0.033081762 0.01854429 0.047392644 0.026441311 -0.020160321 -0.012704307 0.0797574 -0.008809835
-0.06825968 -0.060016368 -0.06447314 0.009685613 0.0580718 0.051717274 0.024882762 0.039486106
-0.042005647 0.07189593 0.02475907 -0.055933584 -0.051549003 -0.08331907 -0.024357043 0.05666011
-0.0043350933 -0.046290785 0.028463563 -0.061954226 0.012312354 0.062302217 0.05044358 -0.026242852
-0.032272898 0.036601733 0.04840906 -0.017908154 -0.0022420073 -0.0111713875 -0.005923609 -0.069578044
-0.0663905 0.060942505 -0.050303057 0.05629643 0.05069 -0.030045437 -0.05688809 -0.007843991
-0.021128047 -0.05551453 0.090528116 0.003910596 -0.023094703 -0.06263279 0.009093466 -0.0047762864
0.0673698 -0.041740943 0.039328616 0.0033259247 0.051113896 0.003417678 -0.023676032 0.012212658
-0.0511335 0.05321962 -0.07484187 -0.053361326 0.08748916 -0.051874634 -0.083599746 -0.07562022
0.095207624 -0.01037679 -0.07799518 -0.015564439 -0.045920532 -0.062499844 -0.04270218 0.07595797
0.03278165 0.061432254 0.00284914 -0.03329942 -0.040090524 -0.068934016 -0.075784296 -0.07610829
-0.00074011553 0.036327746 0.06881079 0.0018584122 -0.016677668 -0.011355639 0.039695263 -0.011638402
-0.022299908 -0.036198225 -0.08620851 -0.077397086 -0.0380163 0.00013441061 -0.055655565 0.035149645
-0.051150247 0.08311022 -0.06691209 0.057084132 -0.048740346 -0.026723208 -0.082212426 -0.08624148
-0.08080525 -0.0019832342 0.08069474 0.033644248 0.047918614 0.018072708 -0.04142011 -0.04548575
-0.031746164 -0.08735172 0.04415544 -0.037119105 -0.037516303 0.017534815 0.0012478363 0.034667328
-0.05195635 0.09206343 -0.04415022 0.026386563 0.08100975 -0.00074146857 -0.081872664 -0.08353318
0.08843237 -0.07314843 -0.036858443 0.05183747 -0.074367546 0.09239828 0.0011137043 0.038841154
0.007081045 0.00069755944 0.041188907 -0.06582677 0.030316059 -0.042518385 0.08784975 0.06715419
-0.03788322 0.047331534 -0.01586708 0.030264515 -0.039918285 -0.048680138 0.04951726 0.043521896
0.07189552 0.023802722 -0.036933538 0.025774276 0.0009945624 0.07569644 0.03630523 0.08027401
0.0028842834 -0.07524855 -0.0696144 0.06764692 0.06777079 0.024801543 -0.07877529 0.05786712
0.034391936 -0.069451794 0.027198719 0.09972226 -0.06080034 0.0031388935 0.03251861 -0.04376905
0.05320884 0.07225097 0.06804891 -0.08330894 9.32868e-05 0.07172843 0.06135031 -0.023414928
0.05352542 0.07324573 -0.011320187 0.06754404 0.054686308 -0.027364256 -0.043530654 -0.056152936
-0.0716049 -0.04715446 0.017429784 0.030629385 -0.024936229 -0.00398922 0.06165425 0.020157304
-0.055914763 0.088581465 0.050920025 0.011585033 0.036588952 -0.08613372 0.041983068 0.0106496485
-0.01538932 -0.04307572 0.06561902 0.017580908 -0.05492175 0.033514746 0.012613039 -0.026908256
0.07514108 0.07486288 -0.0075832293 -0.043604106 -0.044207215 -0.053915173 0.0495707 0.053093318
-0.039585166 0.05007655 0.008662813 -0.0077473177 -0.022535374 -0.073032334 -0.07742287 0.049346603
-0.012575469 -0.0040669134 -0.060258016 -0.024856964 -0.03528419 0.0052790893 -0.09958051 0.0033074615
-0.0808081 -0.05922956 -0.014304648 -0.021005511 -0.010120341 0.052913237 0.015800124 0.006787724
00000000: be80 073d 32ea 973c ca1e 423d 739b d83c
00000010: 4227 a5bc ba25 50bc d957 a33d 2057 10bc
00000020: bbcb 8bbd b9d3 75bd 7e0a 84bd 68b0 1e3c
00000030: b2dc 6d3d 7ed5 533d efd6 cb3c 2fbc 213d
00000040: 1d0e 2cbd 2c3e 933d 88d3 ca3c 9d1a 65bd
00000050: 0c25 53bd 30a3 aabd 6c88 c7bc 6e14 683d
00000060: 660d 8ebb 689b 3dbd 6b2c e93c b7c3 7dbd
00000070: c1b9 493c 9c30 7f3d ed9d 4e3d 40fb d6bc
00000080: 9630 04bd b3eb 153d 9448 463d 1fb4 92bc
00000090: a4ee 12bb 3208 37bc d51a c2bb ef7e 8ebd
000000a0: bef7 87bd d99e 793d 940a 4ebd 1697 663d
000000b0: 51a0 4f3d d921 f6bc 7c03 69bd 1584 00bc
000000c0: ba14 adbc 3463 63bd ce66 b93d 7524 803b
000000d0: 1a31 bdbc 9f45 80bd c3fc 143c 6582 9cbb
000000e0: 2df9 893d 8df8 2abd 0b17 213d c2f7 593b
000000f0: ce5c 513d 1ffb 5f3b 3df4 c1bc 9a17 483c
00000100: 5c71 51bd d1fc 593d b246 99bd 6891 5abd
00000110: 842d b33d 7f7a 54bd 5836 abbd c6de 9abd
00000120: 37fc c23d 6903 2abc f0bb 9fbd fd01 7fbc
00000130: 2b17 3cbd d6ff 7fbd 7be8 2ebd da8f 9b3d
00000140: 0d46 063d 63a0 7b3d a3b8 3a3b f964 08bd
00000150: f635 24bd 472d 8dbd cc34 9bbd aade 9bbd
00000160: 5004 42ba 67cc 143d acec 8c3d f795 f33a
00000170: 9b9f 88bc 010d 3abc 8097 223d ffae 3ebc
00000180: 4cae b6bc 9744 14bd 168e b0bd 5d82 9ebd
00000190: fbb6 1bbd 93f0 0c39 17f7 63bd 13f9 0f3d
000001a0: ec82 51bd b135 aa3d 3509 89bd 0dd1 693d
000001b0: f5a3 47bd a1ea dabc fd5e a8bd 609f b0bd
000001c0: 397d a5bd 26f9 01bb 4943 a53d 8dce 093d
000001d0: 4f46 443d 370d 943c 22a8 29bd 444f 3abd
000001e0: 4408 02bd 75e5 b2bd 56dc 343d 340a 18bd
000001f0: b2aa 19bd 2ca5 8f3c 708e a33a 54ff 0d3d
00000200: 2fd0 54bd c08b bc3d dcd6 34bd a228 d83c
00000210: 71e8 a53d 1d5f 42ba dbac a7bd 7213 abbd
00000220: 081c b53d d8ce 95bd e1f8 16bd 8753 543d
00000230: 034e 98bd 4f3b bd3d b7f9 913a e717 1f3d
00000240: 1c08 e83b 6cdc 363a b3b5 283d 30d0 86bd
00000250: 6259 f83c c227 2ebd 92ea b33d 2388 893d
00000260: 6f2b 1bbd b6de 413d aefb 81bc 4aed f73c
00000270: 5b81 23bd d364 47bd 9cd2 4a3d 0444 323d
00000280: f53d 933d edfd c23c 9f47 17bd 9324 d33c
00000290: fa5b 823a bc06 9b3d cbb4 143d b366 a43d
000002a0: 3f06 3d3b e91b 9abd ff91 8ebd 788a 8a3d
000002b0: 69cb 8a3d 9b2c cb3c f054 a1bd 1306 6d3d
000002c0: 8fde 0c3d be3c 8ebd d9cf de3c 2f3b cc3d
000002d0: c709 79bd e5b5 4d3b 3c32 053d 2d47 33bd
000002e0: 83f1 593d 51f8 933d 3a5d 8b3d e19d aabd
000002f0: f8a2 c338 5be6 923d 764a 7b3d aad0 bfbc
00000300: 793d 5b3d db01 963d 4e78 39bc 8854 8a3d
00000310: c0fe 5f3d 012b e0bc 334d 32bd 9f00 66bd
00000320: 97a5 92bd 0925 41bd e8c8 8e3c 7aea fa3c
00000330: 1047 ccbc 01b8 82bb 2b89 7c3d ee20 a53c
00000340: e106 65bd 336a b53d 8491 503d 26cf 3d3c
00000350: 4cde 153d e066 b0bd 70f6 2b3d dd7b 2e3c
00000360: 7d23 7cbc 2b70 30bd 4463 863d d605 903c
00000370: a1f5 60bd c246 093d eca6 4e3c b46e dcbc
00000380: 91e3 993d b651 993d bd7c f8bb 389a 32bd
00000390: a012 35bd 28d6 5cbd a50a 4b3d 6178 593d
000003a0: 0e24 22bd 121d 4d3d 79ee 0d3c 36dd fdbb
000003b0: 1b9c b8bc fa91 95bd e28f 9ebd aa1f 4a3d
000003c0: 5709 4ebc be43 85bb 1cd1 76bd d5a0 cbbc
000003d0: 2886 10bd 36fc ac3b def0 cbbd ffc1 583b
000003e0: b87e a5bd b29a 72bd 0b5e 6abc c013 acbc
000003f0: c9cf 25bc 8dbb 583d 436f 813c 8e6b de3b

linear3.bias f4 [64]
-0.08613101 0.049774103 0.013754484 -0.026681561 -0.039393984 0.03779179 -0.031319063 0.016475724
-0.023115963 0.0040393686 -0.033596165 -0.08373704 0.021805383 -0.00996598 -0.025912378 0.051579505
-0.030807419 -0.0075128335 -0.082052305 -0.03750211 0.05453049 0.0016569438 0.047178894 0.07491959
0.017236317 0.067134336 0.020521384 0.044931978 -0.083063714 0.06534343 0.03314842 0.0072270352
-0.08348125 0.04646415 0.050880313 -0.06648603 0.07268182 0.08062534 -0.016584469 -0.02177626
-0.0006633037 -0.076837696 -0.072941095 -0.01678555 -0.028481008 0.0742556 0.045163125 -0.021231053
-0.089499034 0.028848037 -0.010293409 -0.04284452 0.08093277 0.05693096 -0.023059504 0.07066438
-0.07842001 -0.070775785 0.03017741 0.057921145 -0.015167197 -0.01675598 -0.0835653 0.029466236
00000000: 7465 b0bd eedf 4b3d 7d5a 613c 4a93 dabc
00000010: 965b 21bd 90cb 1a3d 6b48 00bd 19f8 863c
00000020: b05d bdbc ae5c 843b 229c 09bd 537e abbd
00000030: 34a1 b23c 5a48 23bc 3246 d4bc 0845 533d
00000040: d75f fcbc 372e f6bb 0a0b a8bd d09b 19bd
00000050: 5d5b 5f3d cf2d d93a a83e 413d 716f 993d
00000060: 2d33 8d3c ba7d 893d 761c a83c 980a 383d
00000070: 4f1d aabd c7d2 853d a3c6 073d c4d0 ec3b
00000080: 38f8 aabd 3151 3e3d e067 503d d429 88bd
00000090: 35da 943d e61e a53d 27dc 87bc 2164 b2bc
000000a0: 8fe1 2dba 155d 9dbd 2462 95bd da81 89bc
000000b0: 0151 e9bc 5213 983d f8fc 383d bfec adbc
000000c0: 454b b7bd b852 ec3c b0a5 28bc bc7d 2fbd
000000d0: 15c0 a53d 7030 693d 49e7 bcbc 7db8 903d
000000e0: ac9a a0bd e5f2 90bd 9e36 f73c b93e 6d3d
000000f0: d67f 78bc d643 89bc 4924 abbd 2d63 f13c

linear4.weight f4 [32, 64]
-0.007981163 -0.09675937 -0.09192371 0.0857152 -0.11041888 0.017087042 0.10719654 -0.031579293
0.08851178 0.036876045 -0.03570793 -0.0713621 -0.0678247 -0.120880395 0.020379601 0.02156351
-0.027460385 0.07033981 0.009535241 0.03848694 0.1345949 0.12207792 0.08121022 -0.04739373
0.010053526 -0.032810077 0.03405483 0.070292056 0.023075357 -0.03838448 0.023902897 -0.09005504
-0.10482614 -0.034426082 -0.0117430715 -0.011967284 0.06294964 0.05698761 0.026301565 0.023166405
-0.010791886 0.034289647 -0.08804733 -0.087961 -0.0003759484 0.089838974 0.003760534 0.11427215
0.10231988 -0.109503 -0.051886145 0.047388617 -0.0052694352 0.059240993 -0.06613362 0.06980715
-0.071017966 0.0065199146 -0.084897995 -0.029742504 0.076554686 0.07153052 -0.084141925 0.05728808
-0.012360111 -0.0975067 0.11437312 0.052135695 0.010308286 0.032936912 0.06408891 -0.10231464
0.082489215 0.07447649 0.007497974 -0.029175153 0.020244144 0.017029883 0.029889693 -0.08146515
0.0756789 0.011447637 0.022817025 -0.042529184 0.11401007 -0.08181837 -0.044789474 -0.08217681
0.101231724 -0.041385498 0.0068620644 -0.0053613517 0.10173228 -0.09199309 -0.05229582 -0.12689805
-0.022888454 -0.10558757 -0.0016692111 0.057194464 0.02205118 0.025799079 -0.026165422 -0.08158568
-0.017512763 0.10949639 0.015174924 0.023570355 -0.03391033 0.08295763 0.08150298 0.030190133
0.10814534 0.017020617 0.01908718 0.047666106 -0.10338554 0.088226 -0.06415231 -0.04388752
-0.0034597046 -0.098876186 -0.06494049 0.101391606 0.00081909914 0.059329625 0.02746975 0.112455964
-0.05263857 -0.054864336 0.12626101 -0.07364201 -0.107686356 -0.025728 0.066998154 0.048297837
-0.083077505 -0.08630055 0.052533913 -0.08005155 0.064089976 -0.028306345 -0.047547847 -0.01995566
0.10864998 -0.07457538 -0.101334006 0.055500392 0.05871744 -0.026228359 0.08483271 -0.034291048
-0.05498347 -0.09886448 -0.06334418 -0.06641973 0.041149247 -0.032764494 0.07405177 -0.050765242
0.07366929 0.11020391 -0.02442154 -0.06103334 0.06397449 -0.11336403 0.075336695 0.08078622
-0.0045537134 -0.078119904 0.0062474525 0.100893326 0.009626523 0.024596713 0.06664954 0.070295006
0.016174527 -0.06269576 -0.0056368373 -0.05438768 0.055190682 -0.053082816 0.12626292 0.06272099
-0.122917786 -0.05166183 -0.018214876 -0.04646926 -0.00958223 -0.06001245 0.094107084 0.071622916
-0.014420463 -0.062451236 -0.09915359 -0.06361102 -0.08895846 0.103923604 0.0028508534 -0.066189155
0.0006581333 -0.032189418 0.00672629 0.04654226 0.10247088 -0.056719977 -0.026655996 -0.11142911
-0.038793385 -0.10281232 -0.0047176895 -0.07713122 -0.039822597 0.122350834 0.09665654 0.029542489
0.053594142 0.09107303 -0.00976858 0.024226574 -0.011605578 -0.10024004 0.09978416 -0.10346281
-0.04924096 -0.1085378 -0.07156333 0.13307522 -0.004349609 0.03851458 0.024799699 0.09648143
0.019745702 0.013293848 -0.06247722 0.0041551245 0.03076785 -0.08558276 -0.08620061 -0.058287043
0.11285583 0.05547924 0.073094524 0.080841064 0.0038171795 -0.07313688 0.1083068 0.021369359
-0.045207296 0.034151647 -0.07875224 0.0038206168 0.123813145 0.0437843 -0.12102702 0.08774583
00000000: 6dc3 02bc c729 c6bd 8042 bcbd 738b af3d
00000010: 4b23 e2bd 20fa 8b3c dc89 db3d 4a59 01bd
00000020: aa45 b53d 560b 173d 7a42 12bd 4b26 92bd
00000030: ade7 8abd 2490 f7bd 1ff3 a63c f5a5 b03c
00000040: 9af4 e0bc 510e 903d b339 1c3c 7ba4 1d3d
00000050: 3fd3 093e fd03 fa3d 8b51 a63d ee1f 42bd
00000060: 8bb7 243c dc63 06bd 147d 0b3d 48f5 8f3d
00000070: 8808 bd3c 0b39 1dbd 02d0 c33c c76e b8bd
00000080: 16af d6bd 5d02 0dbd 0366 40bc 6d12 44bc
00000090: beeb 803d d76b 693d 6176 d73c 79c7 bd3c
000000a0: 73d0 30bc 4d73 0c3d 2952 b4bd e624 b4bd
000000b0: f11a c5b9 7ffd b73d 4b73 763b 8407 ea3d
000000c0: 168d d13d 1c43 e0bd 9186 54bd 911a 423d
000000d0: 3aab acbb afa6 723d 1071 87bd 0df7 8e3d
000000e0: de71 91bd 02a5 d53b 00df adbd 8da6 f3bc
000000f0: b4c8 9c3d 987e 923d 9a52 acbd e8a6 6a3d
00000100: 1082 4abc 98b1 c7bd 743c ea3d 3d8c 553d
00000110: 16e4 283c dbe8 063d 0c41 833d 578a d1bd
00000120: 1bf0 a83d 2187 983d 91b1 f53b bb00 efbc
00000130: 0cd7 a53c 4182 8b3c 3bdb f43c 33d7 a6bd
00000140: 8afd 9a3d df8e 3b3c c5ea ba3c 1533 2ebd
00000150: 1d7e e93d 6490 a7bd 2b75 37bd 514c a8bd
00000160: 9452 cf3d d783 29bd 2bdb e03b 47ae afbb
00000170: 0359 d03d e066 bcbd 2434 56bd 90f1 01be
00000180: 9180 bbbc 4c3e d8bd 6ec9 daba be44 6a3d
00000190: ada4 b43c 9758 d33c de58 d6bc 6516 a7bd
000001a0: ed76 8fbc a53f e03d 3fa0 783c 9e16 c13c
000001b0: 8fe5 0abd b1e5 a93d 09eb a63d 4c51 f73c
000001c0: 4e7b dd3d d26e 8b3c b85c 9c3c 893d 433d
000001d0: ccbb d3bd d5af b43d 4962 83bd 66c3 33bd
000001e0: 36bc 62bb 997f cabd 85ff 84bd 67a6 cf3d
000001f0: d0b8 563a 9f03 733d 3e08 e13c 504f e63d
00000200: 8b9b 57bd 6db9 60bd 914a 013e 9fd1 96bd
00000210: aa8a dcbd 87c3 d2bc 5436 893d f4d3 453d
00000220: 8a24 aabd 58be b0bd cd2d 573d 11f2 a3bd
00000230: 9b41 833d b5e2 e7bc 88c1 42bd 0d7a a3bc
00000240: e183 de3d faba 98bd 3488 cfbd 6154 633d
00000250: b381 703d dbdc d6bc c6bc ad3d c574 0cbd
00000260: 5936 61bd 7679 cabd 98ba 81bd 1107 88bd
00000270: 1d8c 283d 1034 06bd 74a8 973d 37ef 4fbd
00000280: eddf 963d 96b2 e13d ae0f c8bc 18fe 79bd
00000290: 0f05 833d 672b e8bd 204a 9a3d 3f73 a53d
000002a0: 5137 95bb 54fd 9fbd 6eb7 cc3b 29a1 ce3d
000002b0: 90b8 1d3c 0c7f c93c 8e7f 883d d4f6 8f3d
000002c0: 7180 843c a266 80bd 38b5 b8bb 9ec5 5ebd
000002d0: a00f 623d 5e6d 59bd 114b 013e dd73 803d
000002e0: 52bc fbbd 5b9b 53bd 5d37 95bc 8d56 3ebd
000002f0: c9fe 1cbc 9dcf 75bd 37bb c03d 09af 923d
00000300: ce43 6cbc decc 7fbd 0a11 cbbd 7f46 82bd
00000310: da2f b6bd e6d5 d43d 62d5 3a3b 2e8e 87bd
00000320: 9486 2c3a 0dd9 03bd 3668 dc3b 19a3 3e3d
00000330: 41dc d13d 3553 68bd ad5d dabc f234 e4bd
00000340: d0e5 1ebd 448f d2bd d996 9abb f9f6 9dbd
00000350: 051d 23bd 1393 fa3d ddf3 c53d 1703 f23c
00000360: 8885 5b3d 7f84 ba3d 650c 20bc cf76 c63c
00000370: 5225 3ebc a64a cdbd a35b cc3d 4fe4 d3bd
00000380: e4b0 49bd 1149 debd cc8f 92bd df44 083e
00000390: 2a87 8ebb 77c1 1d3d bd28 cb3c 0e98 c53d
000003a0: bdc1 a13c 71ce 593c 1de8 7fbd b627 883b
000003b0: dc0c fc3c 0446 afbd f289 b0bd 65be 6ebd
000003c0: f520 e73d 333e 633d 95b2 953d 0090 a53d
000003d0: a529 7a3b cac8 95bd f5cf dd3d cb0e af3c
000003e0: 492b 39bd 99e2 0b3d db48 a1bd 5063 7a3b
000003f0: bf91 fd3d 2b57 333d 04dd f7bd 16b4 b33d

linear4.bias f4 [32]
-0.02677719 0.08223574 0.038509008 0.082589895 0.06868936 -0.08611958 -0.032632317 0.09623975
-0.024594095 -0.050523352 -0.06231396 -0.08730996 0.0866018 0.048127618 -0.08027726 -0.11495649
0.03298919 0.012997418 0.096036874 0.025514804 -0.018895844 0.077506304 0.08441135 0.06574516
0.08108017 -0.112931624 0.05252049 0.06380469 0.0725211 -0.04336277 0.038089614 -0.107589245
00000000: d65b dbbc 366b a83d 9fbb 1d3d e424 a93d
00000010: 02ad 8c3d 765f b0bd 77a9 05bd 5919 c53d
00000020: 8e79 c9bc 93f1 4ebd ec3c 7fbd 90cf b2bd
00000030: 495c b13d 7721 453d 6768 a4bd 4f6e ebbd
00000040: ac1f 073d 1ff3 543c fbae c43d 6c04 d13c
00000050: 75cb 9abc a0bb 9e3d dcdf ac3d 66a5 863d
00000060: 5c0d a63d b248 e7bd ba1f 573d 09ac 823d
00000070: f185 943d 299d 31bd db03 1c3d c057 dcbd

linear5.weight f4 [10, 32]
0.17524552 0.05089881 0.10727851 0.040876813 -0.07577061 0.11023619 0.09869822 -0.07535584
0.02464503 -0.09619842 -0.11229825 0.080214605 -0.1514649 0.06133508 -0.13141213 0.008956127
-0.031263016 0.09605592 0.14501694 -0.13070832 -0.042917207 -0.020992635 -0.15040047 -0.1595635
-0.079440854 -0.018075623 0.15302324 0.083961196 0.15557705 -0.13313812 -0.09782612 0.048216213
-0.15090545 0.064974524 0.006469217 -0.17470737 -0.15996698 -0.0063229417 0.046652444 -0.015033553
-0.062652566 0.13542774 0.009602047 -0.096248 0.16475928 -0.019649064 -0.042340986 -0.034196105
-0.049799662 -0.02601377 -0.07053378 0.12629855 0.029245399 0.087565005 0.01090988 0.13810088
-0.100461945 0.07465271 0.056359664 0.059863787 -0.087888956 0.014323382 -0.04119697 -0.078219295
-0.034817114 -0.025314474 0.094724596 0.16403452 -0.04607387 0.16676843 0.088208854 -0.16692889
0.13643342 -0.13516343 -0.07977709 -0.07290694 0.009076032 -0.15356287 -0.15666322 -0.15898201
-0.10198233 -0.0046332143 0.12119607 -0.15035391 0.033369426 0.13136613 0.05561209 0.052252673
-0.15743043 0.09668062 -0.046424773 0.055349797 -0.1202899 -0.03784572 0.11675199 -0.12570052
-0.12841302 -0.023552615 0.09117841 -0.11839685 0.030445572 -0.08013862 0.025075948 0.034517616
0.1253744 -0.084771775 -0.1568016 0.015432742 0.100441515 -0.072790444 0.061114874 -0.15536565
0.07913831 0.08792981 -0.16057967 -0.037464924 0.07577109 0.08455092 0.04999233 -0.12270218
0.15334082 -0.14938305 0.00028823604 -0.1047785 -0.14375907 -0.08084878 0.16675161 -0.14948055
0.14546745 0.17220773 -0.08779246 0.07127784 -0.06462915 -0.1379228 -0.14145795 -0.0038213772
-0.10016063 -0.017162215 0.09522855 0.07696288 -0.17209323 0.048939764 -0.0011064841 0.09131857
0.117573656 -0.12962228 -0.08564843 0.06212165 0.018883264 -0.026985703 -0.08155184 0.018626748
-0.048155855 0.06430736 -0.066908605 0.18182693 0.029094929 -0.039884947 -0.13247095 0.18192472
-0.15000512 -0.16103122 0.077938415 -0.09366335 0.11383222 0.021767471 -0.10396495 -0.16684611
-0.12934905 0.18252124 -0.009756004 -0.1166412 0.15529716 0.089087166 0.15549001 0.08928479
0.0853994 0.0723596 0.08210347 0.09783231 0.11188048 -0.049860187 -0.047851093 -0.039200477
-0.083494455 0.123712204 0.09859675 0.1024201 0.080078475 0.10805073 0.12093689 -0.046454735
-0.17784688 0.053146504 -0.042926162 -0.113711834 0.123816326 0.12892392 0.10500472 -0.06517601
-0.08772972 0.17191869 0.085553184 -0.044508442 -0.11311123 -0.048884522 -0.048475996 -0.124765165
-0.17286657 -0.06093663 0.13569742 -0.0049499325 0.09499878 -0.00515647 -0.16268046 0.17354831
0.16159715 -0.050660405 0.061752416 0.046564784 -0.106711864 0.03219562 -0.06589638 0.056042586
-0.116281345 0.029583715 -0.061623264 -0.13333835 0.030524628 -0.036152165 -0.0015277449 0.026072592
0.16298123 -0.11677546 0.083884336 -0.09547202 0.07304691 0.047254246 0.12700145 -0.04069757
0.03580124 -0.029393049 -0.13260873 -0.14555313 0.15029418 0.023843883 0.108111486 -0.16288483
0.1393867 0.13547005 0.10276411 0.13992894 -0.11827041 0.023016518 -0.14189893 0.012743379
00000000: 9073 333e 457b 503d d6b4 db3d 726e 273d
00000010: 9f2d 9bbd 83c3 e13d 4b22 ca3d 2a54 9abd
00000020: 60e4 c93c ad03 c5bd a0fc e5bd 8e47 a43d
00000030: 9d19 1bbe 7e3a 7b3d e790 06be b8bc 123c
00000040: a60d 00bd f7b8 c43d 527f 143e 67d8 05be
00000050: f4c9 2fbd bff8 abbc 9502 1abe 9d64 23be
00000060: e3b1 a2bd 5413 94bc 20b2 1c3e d9f3 ab3d
00000070: 974f 1f3e 5c55 08be 1059 c8bd 5d7e 453d
00000080: f586 1abe 5d11 853d bafb d33b 7de6 32be
00000090: 62ce 23be ae30 cfbb a216 3f3d 4b4f 76bc
000000a0: fd4f 80bd 92ad 0a3e e751 1d3c ac1d c5bd
000000b0: a8b6 283e 13f7 a0bc be6d 2dbd 3711 0cbd
000000c0: bbfa 4bbd d41a d5bc 0474 90bd 6854 013e
000000d0: 0c94 ef3c 4855 b33d 5abf 323c 516a 0d3e
000000e0: febe cdbd 85e3 983d 64d9 663d bb33 753d
000000f0: 20ff b3bd 9eac 6a3c 27be 28bd 7031 a0bd
00000100: 649c 0ebd 4d60 cfbc f8fe c13d aaf8 273e
00000110: f4b7 3cbd 58c5 2a3e d8a6 b43d 68ef 2abe
00000120: 34b5 0b3e 4868 0abe 2c62 a3bd 3c50 95bd
00000130: a3b3 143c 963f 1dbe 536c 20be 2ecc 22be
00000140: 1ddc d0bd 38d2 97bb a535 f83d 60f6 19be
00000150: 61ae 083d d884 063e 81c9 633d e606 563d
00000160: 7135 21be 7d00 c63d e727 3ebd 78b6 623d
00000170: 8d5a f6bd 1d04 1bbd ab1b ef3d a3b7 00be
00000180: b47e 03be 6af1 c0bc bfbb ba3d 0c7a f2bd
00000190: fe68 f93c b81f a4bd 136c cd3c 5862 0d3d
000001a0: 2662 003e d39c adbd 9990 20be 9dd9 7c3c
000001b0: 48b4 cd3d 2813 95bd 9753 7a3d 2c18 1fbe
000001c0: 4413 a23d 8b14 b43d ff6e 24be d274 19bd
000001d0: e02d 9b3d 0829 ad3d c2c4 4c3d 484b fbbd
000001e0: 6005 1d3e dff7 18be 631e 9739 1c96 d6bd
000001f0: 9435 13be 0c94 a5bd efc0 2a3e 6e11 19be
00000200: 6bf5 143e 3957 303e 89cc b3bd 1efa 913d
00000210: 4a5c 84bd a23b 0dbe 5ada 10be 1270 7abb
00000220: 0421 cdbd c697 8cbc 3007 c33d b79e 9d3d
00000230: 3539 30be 1075 483d 7207 91ba 3b05 bb3d
00000240: 75ca f03d b4bb 04be 7268 afbd 4573 7e3d
00000250: 13b1 9a3c 1f11 ddbc a704 a7bd 1f97 983c
00000260: 133f 45bd 94b3 833d 6107 89bd d730 3a3e
00000270: 7d58 ee3c 665e 23bd 77a6 07be 794a 3a3e
00000280: f19a 19be 5ee5 24be 2d9e 9f3d 92d2 bfbd
00000290: de20 e93d b251 b23c 93eb d4bd b5d9 2abe
000002a0: 1474 04be d9e6 3a3e a6d7 1fbc 95e1 eebd
000002b0: 3806 1f3e 5573 b63d c638 1f3e f2da b63d
000002c0: e1e5 ae3d 4531 943d dd25 a83d 4e5c c83d
000002d0: 9821 e53d 323a 4cbd 82ff 43bd ae90 20bd
000002e0: 24ff aabd d35c fd3d 18ed c93d a1c1 d13d
000002f0: 2f00 a43d b349 dd3d c3ad f73d 5247 3ebd
00000300: 7e1d 36be 26b0 593d 58d3 2fbd c0e1 e8bd
00000310: 6a93 fd3d a204 043e b70c d73d 007b 85bd
00000320: a4ab b3bd 740b 303e 8236 af3d 7c4e 36bd
00000330: dca6 e7bd 233b 48bd c48e 46bd e184 ffbd
00000340: ef03 31be b098 79bd 44f4 0a3e 0b33 a2bb
00000350: b88e c23d 9bf7 a8bb b595 26be a6b6 313e
00000360: b979 253e 4981 4fbd 1af0 7c3d b7ba 3e3d
00000370: c08b dabd 8edf 033d aef4 86bd e98c 653d
00000380: ea24 eebd 8c59 f23c ad68 7cbd d989 08be
00000390: c90e fa3c 4b14 14bd 9d3e c8ba 3096 d53c
000003a0: 8de4 263e f927 efbd 8dcb ab3d d686 c3bd
000003b0: 9e99 953d ab8d 413d ab0c 023e 7fb2 26bd
000003c0: 52a4 123d b1c9 f0bc 95ca 07be e10b 15be
000003d0: b8e6 193e 3f54 c33c 8e69 dd3d 48cb 26be
000003e0: 63bb 0e3e a9b8 0a3e fd75 d23d 8849 0f3e
000003f0: c237 f2bd 238d bc3c f44d 11be 9bc9 503c

linear5.bias f4 [10]
0.02351929 -0.1284855 -0.10224986 -0.16284288 -0.18240052 -0.13662978 0.0019182243 -0.086605
-0.19712532 0.14431565
00000000: 87ab c03c b491 03be 6068 d1bd 49c0 26be
00000010: 34c7 3abe ade8 0bbe ed6c fb3a f65d b1bd
00000020: 38db 49be 7bc7 133e

linear6.weight f4 [3, 10]
0.12782577 -0.19143772 -0.13019252 -0.051094152 0.2528605 -0.08222058 -0.11658778 0.16407518
-0.005028779 -0.055048905 0.26234794 -0.24920344 0.08895459 -0.26363814 0.07499495 -0.044838995
-0.19299206 -0.12483391 0.19668244 0.23971024 0.07642585 0.12952739 0.14240018 -0.049007032
-0.024991883 0.25260174 0.17103817 -0.13680613 0.11162211 0.13594359
00000000: c2e4 023e 4008 44be 3051 05be 1a48 51bd
00000010: ee76 813e 4363 a8bd 93c5 eebd 5303 283e
00000020: 75c8 a4bb f67a 61bd 7852 863e 302f 7fbe
00000030: d32d b63d 94fb 86be f496 993d 18a9 37bd
00000040: b69f 45be eca8 ffbd 1f67 493e 9a76 753e
00000050: 2885 9c3d d4a2 043e 5ad1 113e 99bb 48bd
00000060: c7bb ccbc 0455 813e a124 2f3e e816 0cbe
00000070: 229a e43d cc34 0b3e

linear6.bias f4 [3]
-0.1540121 0.16132596 -0.14733067
00000000: 59b5 1dbe a232 253e dadd 16be

bn1.weight f4 [64]
0.994993 0.99947596 0.99967027 0.9944152 1.0053859 1.0068828 0.9980348 1.0067948
1.0062913 1.0039693 0.9973207 0.9996827 1.0078349 1.0023739 1.0211989 0.99935395
0.99569285 1.000685 0.9978699 1.0000463 1.0067489 0.9915297 1.0032934 1.0059079
0.98645836 0.99104285 0.9993681 0.99399114 0.9934976 0.99797726 0.9959742 1.0197892
0.99445707 0.99598706 0.9927729 0.99566936 0.9982277 1.0048195 1.0148151 0.9999346
1.0029935 1.0037962 0.9912991 0.99504155 0.99366474 0.99421453 0.98688513 1.0036225
1.0093282 0.99192137 1.0099778 1.0003551 0.9879577 1.0044813 1.0038626 0.9955022
0.9894956 1.002886 1.0095649 1.0129658 0.9872832 0.99603164 0.9913265 0.99825335
00000000: dcb7 7e3f a8dd 7f3f 64ea 7f3f ff91 7e3f
00000010: 7cb0 803f 89e1 803f 357f 7f3f a7de 803f
00000020: 27ce 803f 1182 803f 6950 7f3f 35eb 7f3f
00000030: bc00 813f ca4d 803f a5b6 823f a9d5 7f3f
00000040: bae5 7e3f 7216 803f 6774 7f3f 8401 803f
00000050: 26dd 803f e4d4 7d3f eb6b 803f 97c1 803f
00000060: 8988 7c3f fcb4 7d3f 96d6 7f3f 3476 7e3f
00000070: dc55 7e3f 707b 7f3f 2af8 7e3f 7488 823f
00000080: bd94 7e3f 02f9 7e3f 5d26 7e3f 30e4 7e3f
00000090: da8b 7f3f ed9d 803f 76e5 813f b7fb 7f3f
000000a0: 1762 803f 657c 803f c7c5 7d3f 0bbb 7e3f
000000b0: d060 7e3f d884 7e3f 81a4 7c3f b476 803f
000000c0: ab31 813f 8fee 7d3f f446 813f a30b 803f
000000d0: ccea 7c3f d892 803f 927e 803f 3bd9 7e3f
000000e0: 954f 7d3f 925e 803f 6c39 813f dda8 813f
000000f0: 97be 7c3f eefb 7e3f 93c7 7d3f 888d 7f3f

bn1.bias f4 [64]
0.005905094 0.0014954321 -0.00066120474 0.0063706175 0.00034527277 0.006941999 -0.0013869914 0.0013977599
-0.0010883247 0.0036571973 0.008648591 0.0039737956 0.0051597534 0.0005971368 -0.00096045603 0.0012741575
-0.003375613 -0.0020770447 -0.010218062 0.0102342935 0.0043990295 0.004104998 0.0025714654 -0.005605626
0.0040733423 0.0035737362 -0.0010083582 -0.0051296297 -0.0010679086 0.00073599257 -0.0024235265 0.00549181
-0.003272656 0.000610795 -0.0042101755 -0.0055218055 0.0014716611 0.0013312364 0.0029273143 0.007423822
0.0029686892 -0.0056792255 -0.003450316 -0.008822165 -0.0049946858 -0.006468541 0.008971447 0.00013942721
-0.0027011647 0.002283878 0.0066475966 0.0104066 -0.0018202908 -0.01152369 -0.0015791075 0.0037804325
0.004823359 0.0016413622 0.0005594498 0.00089766626 -0.0025378508 -0.003301336 -0.004606772 -0.0015081551
00000000: 857f c13b 6002 c43a b354 2dba 9dc0 d03b
00000010: ba05 b539 b579 e33b b5cb b5ba 0a35 b73a
00000020: 1ea6 8eba 97ad 6f3b d2b2 0d3c 9d36 823b
00000030: 2613 a93b 2c89 1c3a 1dc7 7bba a201 a73a
00000040: 6339 5dbb 071f 08bb a969 27bc bdad 273c
00000050: bc25 903b 3883 863b 0886 283b 66af b7bb
00000060: ac79 853b 5835 6a3b e32a 84ba 7416 a8bb
00000070: 11f9 8bba a0ef 403a 07d4 1ebb a4f4 b33b
00000080: 0e7a 56bb c21d 203a 83f5 89bb 43f0 b4bb
00000090: c1e4 c03a e27c ae3a 2fd8 3f3b 8843 f33b
000000a0: 578e 423b cc18 babb b21e 62bb d88a 10bc
000000b0: 76aa a3bb 0ef6 d3bb fafc 123c 3533 1239
000000c0: 0606 31bb 1dad 153b 15d4 d93b 7280 2a3c
000000d0: d396 eeba dccd 3cbc 0efa ceba 22c1 773b
000000e0: 450d 9e3b fa22 d73a 0aa8 123a 5d51 6b3a
000000f0: 1252 26bb 3a5b 58bb 68f4 96bb 4aad c5ba

bn1.running_mean f4 [64]
0.12748368 0.1207132 0.07563423 0.11962586 0.13922986 0.34717432 0.15562825 0.17198871
0.17241533 0.16202845 0.17394146 0.1927711 0.19227466 0.10610402 0.25732914 0.21744348
0.12782931 0.3441204 0.29406565 0.32770684 0.23929834 0.13656029 0.29716647 0.25533128
0.07622367 0.14589788 0.077257045 0.2445593 0.14115755 0.21079828 0.09067904 0.31005698
0.12477492 0.06390249 0.2781296 0.13322163 0.11724881 0.3080439 0.13779584 0.07483399
0.2577042 0.04065389 0.104190476 0.21107553 0.10937849 0.110008046 0.39016297 0.31679267
0.15693279 0.10323938 0.27954277 0.05221707 0.07284198 0.21481037 0.33208838 0.202628
0.10472739 0.3847652 0.22963767 0.26984313 0.1308184 0.09588917 0.06443371 0.13087264
00000000: 158b 023e 7b38 f73d 1fe6 9a3d 67fe f43d
00000010: 4692 0e3e d5c0 b13e 035d 1f3e cf1d 303e
00000020: a58d 303e c9ea 253e b61d 323e ca65 453e
00000030: a6e3 443e 104d d93d a5c0 833e 81a9 5e3e
00000040: b0e5 023e 8d30 b03e c68f 963e 31c9 a73e
00000050: a00a 753e 76d6 0b3e 3426 983e c8ba 823e
00000060: 281b 9c3d 4166 153e f138 9e3d c16d 7a3e
00000070: 9b8b 103e 81db 573e efb5 b93d cabf 9e3e
00000080: fe89 ff3d 4fdf 823d 0167 8e3e 406b 083e
00000090: 2520 f03d eeb7 9d3e 5a1a 0d3e 9042 993d
000000a0: cef1 833e b284 263d d161 d53d 2f24 583e
000000b0: d401 e03d e64b e13d 71c3 c73e a632 a23e
000000c0: fdb2 203e 2b6f d33d 3b20 8f3e 91e1 553d
000000d0: 2d2e 953d 40f7 5b3e 7d07 aa3e b77d 4f3e
000000e0: 507b d63d f2ff c43e 2326 6b3e e128 8a3e
000000f0: 42f5 053e 8b61 c43d d2f5 833d 7a03 063e

bn1.running_var f4 [64]
0.22189038 0.0647105 0.17586608 0.08778286 0.06753991 0.1345606 0.0675917 0.052507546
0.0976733 0.10216112 0.04783491 0.0909367 0.19882712 0.024930784 0.12461786 0.114801615
0.03358823 0.16129777 0.29452866 0.1841644 0.11693602 0.070518 0.07971404 0.07505597
0.02912116 0.087220475 0.039999947 0.06386182 0.07827498 0.11648264 0.016566092 0.37253404
0.044441573 0.013439932 0.17138854 0.058066547 0.10282413 0.5145823 0.090175085 0.09910953
0.101405665 0.012507334 0.119024396 0.07399863 0.12208444 0.058668897 0.47060698 0.16273026
0.1597174 0.13221261 0.05484778 0.05804445 0.0233805 0.21353671 0.20691228 0.113311306
0.027424147 0.5379342 0.14473924 0.1759142 0.30116338 0.026114745 0.04697567 0.055413276
00000000: 3b37 633e f086 843d 3d16 343e 80c7 b33d
00000010: 5d52 8a3d 41ca 093e 846d 8a3d 2712 573d
00000020: f008 c83d d939 d13d 8aee 433d 053d ba3d
00000030: 5699 4b3e a53b cc3c a637 ff3d 1c1d eb3d
00000040: d093 093d 3e2b 253e 76cc 963e 9895 3c3e
00000050: 277c ef3d be6b 903d 1d41 a33d f2b6 993d
00000060: 808f ee3c a6a0 b23d fcd6 233d fcc9 823d
00000070: a24e a03d 738e ee3d 9db5 873c c8bc be3e
00000080: 5e08 363d 2933 5c3c 7a80 2f3e 30d7 6d3d
00000090: 7595 d23d aabb 033f b7ad b83d f0f9 ca3d
000000a0: c6ad cf3d 90eb 4c3c 10c3 f33d 988c 973d
000000b0: 6807 fa3d cc4e 703d 66f3 f03e c3a2 263e
000000c0: f58c 233e be62 073e 11a8 603d 04c0 6d3d
000000d0: 7688 bf3c 5ea9 5a3e d0e0 533e c20f e83d
000000e0: 9ba8 e03c 0eb6 093f 8636 143e da22 343e
000000f0: 1632 9a3e 97ee d53c 8f69 403d 08f9 623d

bn2.weight f4 [128]
0.99795276 1.0027583 1.0080016 0.9948142 0.988612 1.0048964 0.99807066 0.98797816
0.99755204 1.010226 0.9907559 1.0009569 0.99012655 1.0055357 1.0025879 0.9998992
1.0038162 0.9949708 0.9945798 0.99613965 0.99961287 0.9982462 1.0117085 0.9935289
0.9956362 0.99294513 0.98402005 0.9961412 1.0092956 0.99675786 1.016377 1.0047828
0.9959866 0.99960595 0.992164 0.9968851 1.0034721 1.0023202 0.9965708 0.99732035
0.9944756 0.99692863 0.9889217 1.0001798 0.99006015 1.0027215 1.0016412 1.0160108
1.0138727 0.9997346 1.0031202 1.0070647 0.9998632 0.99750173 0.9979408 1.000027
1.002545 0.99783576 0.99587494 1.0085737 0.9856375 0.99896723 0.9994085 1.0023651
1.0015918 0.9908999 0.99684274 1.0048406 0.9966208 1.011866 0.9980444 1.0036936
0.99494505 0.99689794 0.990541 0.9926054 0.99853444 0.9977693 1.0022821 1.0051137
0.9990299 1.029919 0.98590034 0.9871457 1.0103776 0.9992038 1.0022177 0.99087477
1.0119822 1.0076138 1.0041049 1.0020481 1.0085549 1.007007 0.99435186 0.9979402
1.0149083 1.0005631 0.997065 1.0024866 1.0048447 1.0123957 0.99422246 1.0006428
0.992212 1.0008786 0.99124473 0.99378335 0.9895493 0.9988438 0.9996718 1.0055842
0.99533534 1.0004508 0.9936037 1.0006217 0.99948084 0.99531597 1.0092775 0.9997548
0.99619937 0.9969033 0.9939911 1.0034745 1.0197648 1.0004905 1.0093124 0.99768215
00000000: d579 7f3f 625a 803f 3206 813f 25ac 7e3f
00000010: ad15 7d3f 72a0 803f 8f81 7f3f 23ec 7c3f
00000020: 925f 7f3f 164f 813f 2ea2 7d3f 5b1f 803f
00000030: ef78 7d3f 65b5 803f cd54 803f 65f9 7f3f
00000040: 0d7d 803f 68b6 7e3f c89c 7e3f 0203 7f3f
00000050: a1e6 7f3f 108d 7f3f aa7f 813f e957 7e3f
00000060: 04e2 7e3f a731 7e3f bde8 7b3f 1c03 7f3f
00000070: 9930 813f 862b 7f3f a418 823f b99c 803f
00000080: faf8 7e3f 2de6 7f3f 76fe 7d3f dd33 7f3f
00000090: c671 803f 074c 803f 441f 7f3f 6350 7f3f
000000a0: f495 7e3f b736 7f3f f929 7d3f e405 803f
000000b0: 9574 7d3f 2e59 803f c735 803f a40c 823f
000000c0: 95c6 813f 9bee 7f3f 3e66 803f 7fe7 803f
000000d0: 09f7 7f3f 465c 7f3f 0c79 7f3f e200 803f
000000e0: 6553 803f 2a72 7f3f a9f1 7e3f f118 813f
000000f0: bd52 7c3f 51bc 7f3f 3cd9 7f3f 804d 803f
00000100: 2934 803f 9eab 7d3f 1631 7f3f 9e9e 803f
00000110: 8a22 7f3f d384 813f d67f 7f3f 0879 803f
00000120: b8b4 7e3f b434 7f3f 1894 7d3f 631b 7e3f
00000130: f49f 7f3f cf6d 7f3f c84a 803f 91a7 803f
00000140: 6cc0 7f3f 63d4 833f f763 7c3f 95b5 7c3f
00000150: 0e54 813f d2cb 7f3f ab48 803f f8a9 7d3f
00000160: a288 813f 7df9 803f 8286 803f 1d43 803f
00000170: 5418 813f 9be5 803f d88d 7e3f 0279 7f3f
00000180: 84e8 813f 7412 803f a73f 7f3f 7b51 803f
00000190: c09e 803f 2f96 813f 5d85 7e3f 1015 803f
000001a0: 9b01 7e3f ca1c 803f 37c2 7d3f 9668 7e3f
000001b0: 1a53 7d3f 3ab4 7f3f 7eea 7f3f fcb6 803f
000001c0: 4cce 7e3f c60e 803f d05c 7e3f 5f14 803f
000001d0: fadd 7f3f 07cd 7e3f 0130 813f eeef 7f3f
000001e0: ec06 7f3f 0e35 7f3f 3376 7e3f da71 803f
000001f0: a787 823f 1310 803f 2631 813f 1968 7f3f
