nbs/models/hot-model.pth (torch, 32259 bytes, 62 tensors)

layers.0.weight f4 [10, 15]
00000000: 5456 5ebe e4c8 5cbe dec8 593e e30a e8bd
00000010: 0be0 c8bc d7ee 6d3e c3fd 3f3c 89fb c93c
00000020: d8e5 5abe 6e32 5d3e f6ea 57be 0b7e c03d
00000030: cefd bdba a3ba 9cbd 45fe adbc 1fa8 87be
00000040: 03e3 31be 0756 363e 956c 513e f9a0 173e
00000050: 514e d5bd 1fdf 06bd 5e1d 653d 7ff3 65be
00000060: 9ec8 96be e460 77be 5230 263e cee8 d73d
00000070: 5426 69bd baf0 833c 8d76 4abd 06d1 05bd
00000080: 1a99 363d c6c2 d23d 2601 493d 60a6 82bd
00000090: 46d5 c73d 43fe 5e3e eaab 2ebd fe69 063e
000000a0: c9ac 4dbe 790b 68be a705 8fbe a3e5 d73d
000000b0: f0bf 0abe 0d0b 273e 7b12 b43d e5bc 1a3d
000000c0: 5fd3 58be 9e24 2c3e b477 a4be 6617 12be
000000d0: ddb3 2cbd b607 af3d 67b4 3bbc 9c66 a3be
000000e0: ed85 56bd 07e6 ebbd ef47 433e b565 7c3c
000000f0: 82f9 f33d 8ef7 12be 5c9c 183e fc57 86bd
00000100: de00 533d 6353 043e 27a5 933e abe2 523e
00000110: e817 a3bd fe9d 613e 12a5 d23d 123e d1bd
00000120: 83eb 17be edca fd3d 1897 bcbd e61b 34be
00000130: 6e2c 6bbd 7128 fc3d f5d8 81be 7d82 ec3d
00000140: e6c6 1e3d 49d8 153e a949 7cbd d650 00be
00000150: b83c 1c3e 0d98 0dbe 22d5 7b3d 476f 06ba
00000160: 88dd 3ebe da62 503e 880b 7dbe 70f8 e83c
00000170: 1cd9 1fbd 4a1f 853e 3617 223e f470 52be
00000180: 5e82 e43b 414a 2e3e dbaa 383d fe6a bd3d
00000190: 0d7b 74be 0db7 91bd f482 75be b086 33be
000001a0: 7088 31be a983 eabc b8f0 8c3d c088 9dbe
000001b0: 7380 c53a 96c5 b6bd 445b 0a3e 5a1c 1ebe
000001c0: 195e 01be f69c be3c 501f e73d 56da a6bc
000001d0: bda2 e03b e9db 9cbc cfe9 043d d4db b3be
000001e0: 43d2 823d c0d6 31be c2a7 033e 7280 c0bd
000001f0: 82a5 14be 1319 273e 94ac 283e 062b 113e
00000200: 2856 c9bd 6180 a13d 19ca e83d 762d 333e
00000210: c6b7 ff3d 9920 31bd cde9 fbbd 341d 583d
00000220: fac6 0fbe 8a00 05bd 456d 473d ecb8 0b3e
00000230: 16f2 053c 21d3 253e 2342 6abe bba3 333d
00000240: 694d 59be f7bd 0bbe 38e9 10bb 0051 4c3e
00000250: 125b af3d 03a6 403e
-0.21712619 -0.21561009 0.21268031 -0.113302015 -0.024520895 0.23235641 0.011718216 0.024656074
-0.21376741 0.21601269 -0.21085724 0.09399041 -0.0014495195 -0.07652786 -0.02123941 -0.26495454
-0.17371754 0.17806254 0.20451577 0.148075 -0.10415328 -0.03292763 0.05593621 -0.22456168
-0.29449934 -0.24158055 0.1622937 0.10542451 -0.05692132 0.016105998 -0.049429465 -0.032670043
0.044579603 0.10291056 0.04907336 -0.0637939 0.097574756 0.2177668 -0.04264442 0.1312637
-0.20085444 -0.22660626 -0.27934 0.105418466 -0.13549781 0.1631281 0.08792587 0.0377778
-0.21174382 0.16810843 -0.32122576 -0.14266738 -0.04216372 0.085463926 -0.0114565855 -0.31914222
-0.052373815 -0.115184836 0.19070409 0.015405108 0.11912824 -0.14352247 0.14903396 -0.065597504
0.0515145 0.12922435 0.2883694 0.2059428 -0.07963544 0.22032925 0.10285391 -0.10216917
-0.14835934 0.12392221 -0.09208506 -0.17588767 -0.05741542 0.12312401 -0.25360838 0.11548326
0.038763903 0.14633287 -0.061593685 -0.12530836 0.15257537 -0.13827534 0.061482556 -0.0005128276
-0.18639195 0.20350209 -0.2471143 0.028438777 -0.03902541 0.26000434 0.15829167 -0.205509
0.006973549 0.17020513 0.045084815 0.09248923 -0.23875065 -0.07114992 -0.23975736 -0.17531848
-0.17337203 -0.028627234 0.06881851 -0.30768394 0.0015068188 -0.08924405 0.13511378 -0.15440503
-0.12633552 0.023268204 0.11285269 -0.020367783 0.0068553374 -0.01914783 0.03244954 -0.35128653
0.063877605 -0.17367077 0.12856963 -0.09399499 -0.14516261 0.16318159 0.16472083 0.14176568
-0.09830886 0.078858145 0.11366672 0.1749781 0.12486224 -0.04324398 -0.12300453 0.052762225
-0.14040747 -0.032471217 0.048688192 0.13644761 0.008175394 0.1619382 -0.22876792 0.043857317
-0.21220936 -0.13646685 -0.0022111665 0.19952774 0.08562292 0.18813328

layers.0.bias f4 [10]
00000000: 6036 8cbd 5244 27bd 6a01 ad3c 9d99 97bd
00000010: fb3d 943e 5bad f2bd 5910 fd3d 0576 2a3e
00000020: 1a4b 14be d1f2 5b3e
-0.06846309 -0.04083664 0.021118838 -0.07402346 0.28953537 -0.11849471 0.12356634 0.16646583
-0.14481774 0.21479346

layers.2.weight f4 [10]
00000000: 0d07 6f3f 0ac1 793f 48ba 773f 412e 843f
00000010: a68a 913f 0693 843f 8073 693f 9054 953f
00000020: 76d6 713f 92a4 633f
0.93370134 0.9756018 0.9676862 1.0326616 1.1370437 1.0357368 0.91191864 1.1666431
0.94467866 0.8892299

layers.2.bias f4 [10]
00000000: e941 a93c 8e96 033d fc66 243b 4a6c 133b
00000010: e61f b23c 4a47 793d 3208 31bb 0510 6dbd
00000020: 922a ff3c d0b6 133b
0.020661311 0.032126002 0.0025085798 0.0022494965 0.021743726 0.060859002 -0.0027012941 -0.057876606
0.031148229 0.0022539385

layers.2.running_mean f4 [10]
00000000: 87b8 1a3e d6e2 433e 8e5d 8e3e a91c f23d
00000010: d8f0 093f eb0a 8f3d 4be3 9a3e 251a 663e
00000020: 4051 f03d 3a49 8d3e
0.15109454 0.191295 0.27805752 0.11821873 0.53883123 0.06984504 0.30251536 0.22470911
0.11734247 0.2759493

layers.2.running_var f4 [10]
00000000: 3c4c 073e d7ee 343e 13af e43d f625 c53d
00000010: 0ac9 953e af7b f33c d6b7 f83d c8b2 ed3c
00000020: ae25 633d cdbc 853e
0.13212675 0.17669235 0.11166205 0.09626381 0.29254943 0.029722063 0.12144439 0.029015914
0.055455856 0.26120606

layers.4.weight f4 [15, 10]
00000000: 9de0 d53d 5a68 8f3e 4b15 dc3d 8d7a 4fbe
00000010: 28b0 483e 1ad0 9c3e 85f9 3a3e bf3c 193d
00000020: f9bb 9c3d 94a2 023d 1f08 ac3e 9e4d 1bbe
00000030: 3596 ce3d e84c 58bd 6cfd a73e ca5d 683e
00000040: 59ca 2abe c26a 293d 5301 60bd 0e98 1e3e
00000050: d1b6 7ebe a50a 7dbe 7167 083e 3c56 2abe
00000060: 7302 243e 03f3 6d3e 44dd 4bbe 5969 1fbe
00000070: f882 30bc aea7 893d ed93 dcbd 6b72 793e
00000080: dc2d 853b ac93 0f3e 3c25 6dbe 62f0 b0bd
00000090: 06dc 75be 3876 30bc c3d2 10be 6376 84be
000000a0: ab3f ce3c 2d50 493e 4b93 fabd c7a1 73bc
000000b0: 791b 783e 11cd 30be 3509 ed3d bba0 d2bd
000000c0: caaa 753e 0bb7 69bb 0cf2 213e da96 efbd
000000d0: eb77 83be e3be bd3d fc6d a0be 25a3 5abe
000000e0: 7505 093e c024 c33e 1b89 70be f46c 42be
000000f0: 1116 c13d 8022 6fbe 8e79 98bd 9156 6f3d
00000100: 718f 333e 2ba5 b23d d9e8 d93d 0c1b 87be
00000110: 1820 4bbb d1e0 d6bd 7fd3 92be b223 3bbe
00000120: 7498 0c3c effa 073e 65b8 7fbe 8ca7 0d3e
00000130: fb44 09be b99a 2b3e b85b 513e d0c4 4d3e
00000140: b1a2 8e3e b28d 523d 70e4 4abe ecfa 20be
00000150: c316 33bc 0efa 4ebe 15bc 0dbe d735 c5be
00000160: 2e85 75bd 65f6 9fbe 2948 a03e 7aba 8a3d
00000170: 6278 9d3e 7816 143e ffcf a03e a718 bebd
00000180: 1812 06be 0819 3fbe da2b 93be 7df7 e7bc
00000190: 225f e53b 097a 1c3e 6a24 19bd 5228 f23c
000001a0: a195 0a3e e4c6 ad3d 786f a03d 16d3 36be
000001b0: 710e 343e 7efe 82be cae8 813d fcf2 2e3e
000001c0: a080 303e e914 1a3e a5d2 54bd 2865 7d3e
000001d0: 7da0 85be d1ab 7cbd 5d4a fbbd 285d 5e3e
000001e0: ad9f 793e ff70 aabd b3b3 e63d e20a 21bd
000001f0: 176e 94bd 362d 0d3e ef85 a53d 29cd 64be
00000200: 732c fa3d 4638 8d3e bf6c 2cbe a6bf adbc
00000210: 29d9 69be 46a5 b9bd 9dc3 953e 0ed0 703e
00000220: f500 88be cb6c bcbe 4937 173d c2cf 04bb
00000230: 3fb7 7b3e 3509 b8bd eceb 6d3e 8bc4 46be
00000240: e4dd a5ba f302 a03c f72e 35be b44c 93bc
00000250: a247 0fbd 2e5d f7bd
0.10443232 0.280093 0.10746249 -0.20261593 0.19598448 0.3062752 0.18259247 0.037411448
0.076530404 0.031893328 0.33599946 -0.15166327 0.100872435 -0.05280772 0.32810533 0.22692028
-0.16678752 0.041361578 -0.054688763 0.15487692 -0.24874426 -0.24711092 0.1332071 -0.16634458
0.1601656 0.23237233 -0.19908625 -0.1556753 -0.010773413 0.067214355 -0.10770402 0.24360053
0.0040643048 0.14021176 -0.23158735 -0.086395994 -0.24009714 -0.010770373 -0.14142899 -0.25871572
0.025176844 0.19659491 -0.12235125 -0.014870114 0.2422923 -0.17265727 0.11574022 -0.10284563
0.23990932 -0.003566208 0.1581499 -0.116986945 -0.25677428 0.092649244 -0.3133391 -0.21351297
0.13380988 0.38113976 -0.23489802 -0.18986875 0.09428037 -0.23353004 -0.0744506 0.058432166
0.17535187 0.087229095 0.10640115 -0.26387823 -0.003099447 -0.10492099 -0.28676984 -0.18275335
0.0085812695 0.13279317 -0.24972685 0.13833445 -0.1340522 0.16758241 0.20445144 0.2009461
0.278585 0.051404662 -0.19813704 -0.15720719 -0.01093072 -0.20212576 -0.13841279 -0.3851764
-0.059941463 -0.31242672 0.31305054 0.06773849 0.30755907 0.14461696 0.31408688 -0.09282046
-0.1309284 -0.18661892 -0.28744394 -0.028316254 0.006999866 0.15280928 -0.037388243 0.029560242
0.13533641 0.08485201 0.07833761 -0.1785396 0.17583634 -0.25584787 0.06343229 0.17084879
0.17236567 0.15047039 -0.0519587 0.2474562 -0.26099005 -0.061687294 -0.12270043 0.21715224
0.24377318 -0.083223335 0.11264744 -0.03931702 -0.072475605 0.13786778 0.080821864 -0.22343887
0.12215509 0.27581996 -0.16838358 -0.02120955 -0.22836746 -0.090647265 0.29250804 0.23516867
-0.2656323 -0.36801752 0.03691796 -0.0020265435 0.24581622 -0.08986131 0.23234528 -0.19410913
-0.001265463 0.019532656 -0.17693697 -0.01798091 -0.034980424 -0.120783195

layers.4.bias f4 [15]
00000000: 7898 39be 0a81 ac3a 41f4 bc3e c22d 133e
00000010: f5e3 6ebe a8b5 9cbd facb 553e ad2e efbc
00000020: 7cf4 253d c083 00be e320 8e3e f59b 3abe
00000030: cd77 6cbe 639a 58be 3e7c 8ebe
-0.18124568 0.0013161015 0.369051 0.14372924 -0.23329146 -0.07651836 0.20878592 -0.029197061
0.04051636 -0.12550259 0.27759466 -0.18223555 -0.23092575 -0.21152644 -0.27829164

layers.6.weight f4 [15]
00000000: 6190 873f 3681 783f 543f 813f 078c 6f3f
00000010: c57f 833f 4493 843f ccd0 763f 0f0f 6c3f
00000020: 54f2 6f3f 9573 783f 9c9d 8a3f e0a3 6c3f
00000030: fb34 833f ab27 893f b2fd 723f
1.0590936 0.9707216 1.0097451 0.9357304 1.0273367 1.0357442 0.9641235 0.9221048
0.9372914 0.97051364 1.0829349 0.92437553 1.0250543 1.0715231 0.9491836

layers.6.bias f4 [15]
00000000: eabc f63c 906e 1f3d ab91 a83d c5e3 7c3c
00000010: 21bc d53b fa6a 4ebd 8354 8d3d a3b2 a53c
00000020: 6229 943d 8151 b83c 9a8d 9a3d 73c4 5dbc
00000030: 8b12 7d3d 9cd6 d83c 068a 223d
0.030119378 0.0389238 0.08230909 0.015435164 0.006522671 -0.05039499 0.06900885 0.020226782
0.07234456 0.022499802 0.075465396 -0.013535607 0.061785262 0.026469521 0.03968241

layers.6.running_mean f4 [15]
00000000: 91a5 893e 512a 853e 5982 023f 24fd 963e
00000010: 3a03 103e d492 b43e 20e6 ba3e 5a13 863e
00000020: 74af a73e c541 833e d6c2 d53e c745 313e
00000030: eb22 263e 4a83 953e a758 913d
0.2688413 0.26008847 0.50980145 0.29490006 0.14063731 0.3526827 0.36503696 0.2618664
0.32751048 0.25636116 0.4175021 0.17311774 0.16224258 0.29201728 0.07096987

layers.6.running_var f4 [15]
00000000: 959d 0f3f f770 f93e 48c8 993e 5a4e 0a3e
00000010: f6f1 363e 94d5 ab3e 7f37 3b3e 49cd 533e
00000020: 0477 3e3e 076a a13e cea9 713e 5474 643e
00000030: c53a 6e3e e55e a53e 30da 353d
0.56099826 0.48718998 0.30035615 0.13506451 0.17865738 0.33561385 0.18282889 0.20683779
0.18600088 0.31526205 0.23599932 0.2231 0.23264606 0.3229896 0.044397533

layers.8.weight f4 [20, 15]
00000000: ab4c 8dbc a3f9 de3a da37 e5bd e132 e13d
00000010: 5ad5 c3bc 5dc3 c43d b22d fd3d 7f0d 273d
00000020: a671 803e 51ec 2e3e 6029 48be cf4e 0f3e
00000030: bd15 90bd 34e2 b4bc 2d56 053d 5544 43be
00000040: 3431 3f3e 24d2 6a3e f755 493e b3a2 903d
00000050: e7bf 19be acf7 a63c 7428 fbbd a7bc 26be
00000060: 5167 d73d 3573 da3d 9603 babd 3301 0ebe
00000070: 29a3 1a3d 97c1 bb3d a1c7 6f3e 7ff1 0f3e
00000080: 8a4c 6d3e e9da 103e 4f4b 55bd fe36 83bd
00000090: 4d96 0bbe 1e3e 11be 433d b33d 6b3e e73d
000000a0: 6984 583e 6728 573e 1971 1b3e 019b f0bc
000000b0: 5187 2bbd e2ec cfbb cf9a d63d c552 32be
000000c0: af55 a6bd 3b36 b23d 782a ea3d 6f98 4a3e
000000d0: d4d4 513e 4058 fabd af30 6e3d 5770 3abe
000000e0: 5732 9bbc 90a1 90bd 2fd0 263d 6022 7f3e
000000f0: 9177 2cbe 2e78 4a3e 74c6 433e f10c fcbd
00000100: ec49 c53a cad5 c5bd 747a 2e3e 16dd 9ebd
00000110: d495 653d 1dab 9ebd aea7 863e fb5b 4bbd
00000120: 75e6 673e 85d5 d6bd 97fd 93bd 1043 e53d
00000130: f076 e4bb c2ea d4bd 1c1b 77be 395b 5dbe
00000140: 0273 81be 839c ddbd 427d 56be 0eed 87bd
00000150: 8c77 493e b225 37bd a97c 63be 4635 063d
00000160: 58b7 20be 9d93 02be c183 953c dc11 0d3d
00000170: 23af 74bd 7039 4ebe 4a4c 36be 8381 14be
00000180: 7186 3a3e 06c6 e73c 5f6c 3d3e 7e81 a53d
00000190: 27bd 9dbd a5d4 7e3d 4e57 833c 94d7 883e
000001a0: f413 b23d f2e2 853e 98c3 47be 6a87 aebd
000001b0: e328 60be a6f5 433d 83ac 57be 7cdb acbd
000001c0: b207 403e 71a4 4dbd 0dba e53d afcb 573e
000001d0: a051 3f3e 7249 843e 0d8f 4e3e 3aa2 b83b
000001e0: bb6f 7a3e 2b11 8b3e 29d5 f7bd a937 e83c
000001f0: d13d 5e3e 6a50 7fbe a9c3 113e 3c91 f03d
00000200: 896c 483d 4d06 e0bc 77d2 7f3d 909d 4b3e
00000210: d914 13be 858f f63d 8f8b a7bd 6ae1 563e
00000220: fae2 26bd b68a cf3d cf52 f93d da69 523d
00000230: 2dea f2bd 55e4 7b3e 0890 3c3e 67ff d83d
00000240: 9de3 3d3d 1cc1 dc3d 3a70 04be 809b 3f3e
00000250: bb8b 4e3e 7453 3c3e bdb6 82be 91b1 b6bc
00000260: e91d 84bd 887f f0bc 594c b5bd 87cb 013e
00000270: fcc8 03be ba54 283e e4aa 6ebe 36bc a1bd
00000280: ede0 49be e8d7 c53d 0a8f 35be 9140 16be
00000290: 3515 0f3e 483f 89be b071 30be c217 273e
000002a0: 2b79 2e3e eded c2bd 3572 5abd 5538 1cbe
000002b0: 4e47 f93c a958 743d e274 f73d ff04 893d
000002c0: 634e 873d 0d8d 10be 1349 44be a9d1 f93d
000002d0: 6e97 ecbc 9f12 3abe c4f6 92bd 3385 8e3e
000002e0: 44fb 64bd 6463 fcbd 79bf b63d 36de 3e3e
000002f0: 9ff2 41be 2ed8 60be d090 68be 3a99 783d
00000300: 10fd 16be c003 97be f584 a5bc 686f 01be
00000310: e4c4 8bbd 8132 d4bd 790f 8dbd f127 3cbe
00000320: e284 42bd 2c2d 20be 55f0 f0bc 04e9 16be
00000330: 9a14 e33c 56d0 493e dacb d3bd c9fd 333c
00000340: 0495 c3bc 19cd a0bd eece 2ebe ed3d a0ba
00000350: 59c4 99bc ba3a 513c a466 60bd 41ea 41be
00000360: 9b2d d7bd 1d98 d73d 5523 273e b784 e0bd
00000370: 1f9e 023e 3daf 54be 2844 99bd 9a3e 43be
00000380: 7646 1dbd 8fe5 c03d a32a 463e 1b3b 373d
00000390: a95d ab3d e37b 49bd abc2 8e3e a28f 6bbe
000003a0: a39a 0dbc 7f56 4abd c225 303e 16c7 323d
000003b0: cf4d 7e3e 2b76 12be 6e8d 0f3d ec2e 56be
000003c0: 0e7c 1fbd f582 15be c5ad 33be f40f 143d
000003d0: 56e7 99bd 66b3 743e 8063 3d3d 7a6a 943d
000003e0: 3a6b 013c bf9b 2bbc 58c0 26be dbf0 0ebe
000003f0: 39a2 7abe e8d1 cdbd e83e eebd 5d47 8f3e
-0.017248472 0.0017011653 -0.111922935 0.109960325 -0.023905445 0.09607575 0.12362231 0.040784355
0.25086707 0.17082335 -0.19547033 0.13994907 -0.07035396 -0.022080518 0.032552887 -0.19069035
0.18671113 0.22931725 0.19661699 0.070622824 -0.15014611 0.020381771 -0.12263575 -0.16282903
0.10517753 0.10666505 -0.09082715 -0.13867645 0.037753258 0.09167784 0.23415996 0.14056967
0.23173729 0.14146008 -0.052073773 -0.06406973 -0.13631554 -0.14183852 0.08751919 0.11291202
0.2114426 0.21011506 0.15179862 -0.029370787 -0.041877095 -0.0063453773 0.10478746 -0.17414387
-0.081218116 0.0870175 0.114338815 0.19784711 0.20491344 -0.122238636 0.058151897 -0.18206917
-0.018944902 -0.070620656 0.040725883 0.24915457 -0.16842486 0.19772407 0.19118673 -0.12307156
0.0015051938 -0.09659918 0.170389 -0.077570125 0.05605109 -0.07747481 0.26299804 -0.049648266
0.22646506 -0.10489944 -0.07226103 0.11194432 -0.0069721863 -0.10396339 -0.24131435 -0.2161683
-0.25283056 -0.10820868 -0.2094622 -0.066370115 0.1967451 -0.044713683 -0.22215523 0.03276565
-0.1569494 -0.12751622 0.018251302 0.03444086 -0.059737336 -0.20139098 -0.1780254 -0.1450253
0.18215348 0.028292667 0.18498372 0.08081339 -0.077020936 0.062214512 0.016032841 0.26726973
0.08695212 0.26149708 -0.19508207 -0.08521922 -0.21890597 0.04784169 -0.21061902 -0.08440301
0.18752936 -0.05020565 0.11217127 0.21073793 0.18683481 0.25837284 0.20171757 0.0056345733
0.24456684 0.27161536 -0.12101204 0.028346853 0.21703269 -0.2493302 0.14234795 0.11746451
0.048931632 -0.027346754 0.062456574 0.19884324 -0.14363421 0.12039093 -0.081809156 0.20984426
-0.040743805 0.10133879 0.121739976 0.05137048 -0.11861072 0.2459882 0.18414319 0.10595589
0.046359647 0.1077902 -0.12933436 0.18711662 0.2017049 0.1839121 -0.25530043 -0.022301467
-0.064510174 -0.029357687 -0.08852453 0.12675296 -0.12869638 0.1643857 -0.23307377 -0.078972265
-0.19714709 0.096603215 -0.17730346 -0.14673068 0.13972934 -0.26806092 -0.17230868 0.16317657
0.1703841 -0.09518037 -0.053331573 -0.15255864 0.030429509 0.059654865 0.120828405 0.06690406
0.06606748 -0.14116307 -0.191685 0.121981926 -0.028880801 -0.18171166 -0.07175973 0.27835998
-0.055903688 -0.12323645 0.08923239 0.18639454 -0.18940209 -0.21957466 -0.22711492 0.060693003
-0.14744973 -0.2949505 -0.020205 -0.12640154 -0.06824663 -0.10361195 -0.06887717 -0.18374611
-0.04749001 -0.15642232 -0.029411474 -0.14737326 0.027719785 0.1970838 -0.10341616 0.0109858
-0.023874767 -0.07851619 -0.17071125 -0.0012225487 -0.018770384 0.012770349 -0.054785386 -0.18937017
-0.105067454 0.1052706 0.16322072 -0.10962813 0.12755631 -0.20769973 -0.07483703 -0.1906685
-0.038397275 0.09418785 0.19352202 0.0447341 0.08367474 -0.049190413 0.27882895 -0.2300401
-0.008642825 -0.049398895 0.17201903 0.043646894 0.24834369 -0.1430289 0.035046987 -0.20916337
-0.038936667 -0.14600737 -0.17546757 0.036148027 -0.07514827 0.2389656 0.04623747 0.07246871
0.0078991 -0.0104741445 -0.16284311 -0.13959067 -0.24475946 -0.10049802 -0.11633092 0.27984133

layers.8.bias f4 [20]
00000000: 316b e53d 6278 fa3c 7c09 f93c 91a1 a33c
00000010: a37b 843e a6cd 3e3e 0113 89bd 433a cb3c
00000020: afdb 6b3c ba83 313d bb2b 3f3e b9b2 a83e
00000030: 67e1 023e 7825 adbd d5d8 433e 339c 833e
00000040: 190e 2d3e d56a 823e 31a7 873d 3d07 813c
0.11202086 0.030574981 0.03040003 0.019974502 0.25875577 0.18633136 -0.06693078 0.024808055
0.014395638 0.043338515 0.18669026 0.32948855 0.12781297 -0.08454412 0.19125684 0.25705108
0.16899909 0.2547213 0.06623686 0.015750522

layers.10.weight f4 [20]
00000000: 708f 5c3f 4ff0 813f cef9 8c3f 3fd9 653f
00000010: 4b21 863f 7e49 6a3f 8416 7a3f 1132 813f
00000020: e835 8f3f fb3e 903f 7dae 873f 69a3 753f
00000030: 3716 7e3f 9560 5f3f d54d 773f d379 793f
00000040: 3f36 7c3f 6db7 833f ac29 833f d1c1 843f
0.8615637 1.0151461 1.1013734 0.89784616 1.047891 0.9151839 0.97690606 1.0093404
1.1188326 1.126922 1.0600125 0.9595247 0.9925265 0.8725675 0.9660314 0.97451514
0.9852027 1.0290352 1.0247092 1.0371648

layers.10.bias f4 [20]
00000000: 36ff d83d 4bbb 6abd 5a54 fbbb 0912 b03d
00000010: 66b6 2e3d b838 0dbd 01fb 2ebc a228 6bbd
00000020: dc96 84bd c152 7fbb 1ff5 413c 2065 12bc
00000030: 7f90 aa3c f18e 513c 18b1 88bc 210b 783c
00000040: 3204 133d 0844 72bb c8a3 99bd b13d e0bc
0.105955526 -0.057307523 -0.0076699676 0.0859719 0.042654417 -0.03447792 -0.010679961 -0.057411797
-0.06474087 -0.0038959237 0.011838227 -0.008935243 0.020820854 0.012790428 -0.016686007 0.015139372
0.035892673 -0.003696682 -0.07501942 -0.027373167

layers.10.running_mean f4 [20]
00000000: 95f5 7c3e 4e6f 853e 9274 ab3e e91a 5a3e
00000010: 2fb9 f83e 06f7 c53e 48c8 803e 72ee ac3e
00000020: 449a a43e 294b c93e 1439 ec3e ecbc f23e
00000030: 6f51 e83e 7954 e13d 07db b43e 6add b83e
00000040: 3f5b d13e 6f85 d13e aa44 cc3e d4b9 b53e
0.24703057 0.2606148 0.33487374 0.21299328 0.48578784 0.38665026 0.25152802 0.3377567
0.32148945 0.39315155 0.46137297 0.4740976 0.4537463 0.1100244 0.35323355 0.36106426
0.40889928 0.40922114 0.39896137 0.35493338

layers.10.running_var f4 [20]
00000000: a6ec 0b3e 6c24 3a3e 72fa 313f 92a7 243e
00000010: d8fb f13e a044 263e 76cc 883e 0688 263f
00000020: 4a00 443f f98f 313f 4d6b 993e 9f22 1b3e
00000030: eb6d 9e3e 70ef cf3c eb36 b23d ac90 ad3e
00000040: 7c57 8f3e 40f1 063f 4fec 5c3f 0169 a53e
0.13664493 0.18177956 0.69522774 0.16079548 0.47262454 0.16237116 0.2671849 0.65051305
0.7656294 0.6936031 0.29964676 0.15149926 0.30943236 0.025382727 0.08701881 0.33899438
0.27996433 0.5271187 0.8629808 0.32306674

layers.12.weight f4 [10, 20]
00000000: bc7b b43d 723a 4b3c 9842 8ebc 6986 04bd
00000010: 233c 5bbe 9ef8 43be e1d0 1ebe cb15 313b
00000020: b317 0bbe 7de5 70be 942f 793e 5e42 28be
00000030: 4f8c b83d 1394 413e 9926 c3bd 2292 4f3d
00000040: 85ef 643e cf6e a23d cde5 3b3d 2233 07be
00000050: 54e0 643d ffff 813d 7ee5 e2bd 60bc ff3d
00000060: 07e3 b8bd c042 af3d 25f1 43be 5bba 85bd
00000070: c9d9 98be a3b6 c3bd 0637 b53d b139 ce3d
00000080: e7bc 243e ac24 54bd bc63 bb3d 3b12 52be
00000090: e8aa 573e b383 af3c 7fcf cebd 6286 89bd
000000a0: 07d7 453d bd57 7ebe 3909 df3c fbed 9f3c
000000b0: 120b a63d 3f22 6dbd fb8d 4fbd cd57 54bd
000000c0: 6865 983d ecef 96be 8895 563e 116f d53d
000000d0: 98eb 383d d2c8 dbbd 838d 263e 6943 063e
000000e0: 2364 b0bc c4d7 ccbc e572 1dbe 5a5e 62be
000000f0: 2c25 063e 5cb7 a73d 11c2 8dbd 3e98 893d
00000100: 434f a03d 7183 863d 67f6 033e a9f2 86be
00000110: 8f89 38be 6d49 ff3d da15 833c de9e fa3c
00000120: 50a1 2ebe 50b3 cfbd 0355 d8bd d868 e73c
00000130: 6806 0dbe e519 293e 8663 46be 4741 a5bd
00000140: 8353 013e f07f e1bd 4c1e e0bd 65b1 6dbd
00000150: c16d 76bd a757 f8bd f58f 20be a686 59be
00000160: a983 51bd 332e 26be 13de 36bd 618a 23bd
00000170: b196 8cbc 4c34 343e 641f 4fbd 2dff a03d
00000180: 81c9 633e 8927 43be 1fa6 84ba 590d c6bd
00000190: a601 3b3e 223a 9a3d 9375 333e 284c 17be
000001a0: b55f 9c3e cce6 a3bd 1988 213e 4ef2 243d
000001b0: 36db 293e e1fa d13d c779 403d a5dc 4cbe
000001c0: b05b 893d 2152 213e ce9b c93c 17c7 173e
000001d0: d1e2 913d 201b e03d 3f15 753e e0dc 273e
000001e0: 6f76 8f3d 19a3 37be 6ff3 02be 8be9 a4bd
000001f0: 9822 2cbe 7e93 c0bd 797d dcbd 5391 77bd
00000200: c15c c0bd 6b0d 9ebb 4449 273e c1fe 1cbd
00000210: 4db3 3e3e 808f 5dbd d49a bfbd 414f 6d3e
00000220: 8719 dc3d 68c6 3f3b e2d8 72be 6772 413d
00000230: a76f cebd 2007 d63d c4b3 edbb cea6 213e
00000240: c7d4 adbc f8b0 28be a9e0 15be 1cc7 04bd
00000250: 9264 663d cb70 f13d b7be 20be 9ccc a0bd
00000260: 8693 1cbd a4b6 103e b5d0 93bd edc4 583e
00000270: 878a f0bd 22cc 7e3e 2a83 863a 549f 883c
00000280: 15d9 19bd e017 8cbd 0014 2fbe 0bf4 093e
00000290: 3e3b 61be 3b4d e23c 09ea 3fbe 9672 46be
000002a0: 6f65 6bbd 4bf2 dfbd 7c8b 0a3d 0380 5f3d
000002b0: 859d 29bc b9bd acbd 7862 663c 1b11 a93d
000002c0: ec2f cb3d 72be 46be 00fe 36be 3ad0 50be
000002d0: e1f3 a13d 478a d6bd c818 7f3e 2170 c33d
000002e0: 6f8d 603e 128f 53bd 8c15 c13d 698b 263d
000002f0: e4ea 973d 021a 593e edab 47be aaba a3bd
00000300: f547 80bd d9a5 823d 40ac 91bd 6a60 f5bd
00000310: 2c57 0fbe 9a58 0d3e b3f8 b7bd 7b7b 9dbd
0.08812663 0.012404071 -0.017365739 -0.032354746 -0.21409659 -0.19137809 -0.15509368 0.0027021046
-0.1358326 -0.23525043 0.24334556 -0.16431567 0.09011137 0.18904142 -0.09528846 0.050676472
0.22356994 0.07931291 0.045873452 -0.132031 0.055878 0.063476555 -0.110789284 0.124871016
-0.09027677 0.085576534 -0.19134958 -0.06529685 -0.29853657 -0.095563196 0.088483855 0.100695975
0.16087686 -0.051792786 0.09149882 -0.20514767 0.2106129 0.021425104 -0.100981705 -0.067150846
0.04830077 -0.24838157 0.027226077 0.019522658 0.0810758 -0.057893988 -0.050672513 -0.051841546
0.07441217 -0.2947992 0.20955479 0.10421575 0.045146555 -0.10731663 0.1626492 0.13111652
-0.021532124 -0.025005229 -0.1537586 -0.22106305 0.13100117 0.0818927 -0.06921781 0.06718491
0.07827618 0.06568039 0.12886964 -0.2635701 -0.18021224 0.12465177 0.01600163 0.030593332
-0.17053723 -0.10141623 -0.1056309 0.028248236 -0.13771975 0.16513784 -0.19373903 -0.08069091
0.12629513 -0.1101073 -0.10943279 -0.058030505 -0.060163263 -0.12126093 -0.15679915 -0.2124277
-0.05115095 -0.16228561 -0.04464538 -0.03992689 -0.017161699 0.17598075 -0.050567046 0.07861171
0.22244836 -0.1905805 -0.0010120309 -0.096705146 0.18262348 0.07530619 0.1752532 -0.14775145
0.3054177 -0.080030054 0.15774573 0.040270142 0.16587529 0.102529295 0.046991136 -0.20006044
0.06706941 0.15753986 0.024610426 0.1482204 0.0712334 0.10942674 0.23933886 0.16392851
0.07005011 -0.1793331 -0.12788175 -0.08052357 -0.16810071 -0.09403132 -0.107661195 -0.060441326
-0.093926914 -0.004823377 0.16336542 -0.03832889 0.18623085 -0.05409193 -0.09355703 0.23174764
0.107470565 0.0029262546 -0.23715547 0.047228243 -0.1007989 0.10450578 -0.0072540957 0.15786287
-0.021219624 -0.16473758 -0.14636482 -0.032416448 0.056248255 0.11789092 -0.15697752 -0.07851526
-0.038226627 0.14132172 -0.07217542 0.21168871 -0.11745172 0.24882558 0.0010262479 0.016677536
-0.03756054 -0.06840491 -0.17097473 0.13472001 -0.21995255 0.027624717 -0.18741621 -0.19379649
-0.05746978 -0.109348856 0.03382443 0.05456544 -0.010352497 -0.08434624 0.014061563 0.08255216
0.0992125 -0.19408587 -0.17870331 -0.20391932 0.07907844 -0.10475593 0.24911797 0.09542871
0.21928953 -0.051650114 0.09427938 0.040660296 0.07417849 0.21201327 -0.19499178 -0.07994588
-0.06263725 0.06379289 -0.07112932 -0.1198128 -0.13998097 0.1380333 -0.089829825 -0.07689568

layers.12.bias f4 [10]
00000000: 32b7 1e3d ed9f 653e 8771 5d3a 16c8 313e
00000010: d108 373e a046 323e 9641 8e3d 313a 31be
00000020: ea66 093e 3347 84bd
0.038748927 0.22424288 0.0008447398 0.17361483 0.17874457 0.17409754 0.06946103 -0.17307355
0.13418165 -0.06458893

layers.14.weight f4 [10]
00000000: d4f8 583f ea70 513f 6831 553f 6f73 4d3f
00000010: dfde 573f 4fca 753f 5167 733f 9dd3 693f
00000020: 892f 693f 3cfc 7f3f
0.8475468 0.8181292 0.8327851 0.8025426 0.8432445 0.96011823 0.95079523 0.9133852
0.9108816 0.99994254

layers.14.bias f4 [10]
00000000: 28fe 24be 2bdf 9f3e 23ad a83e b4e1 ae3e
00000010: 1429 8d3e f3cc 36be a7ef 31be ef3b a0be
00000020: e2c3 d4bd 0dae 90bd
-0.16112578 0.3122495 0.32944593 0.34156573 0.27570403 -0.1785162 -0.17376576 -0.31295726
-0.10388924 -0.070644476

layers.14.running_mean f4 [10]
00000000: 8711 f93e dc1b 1a3f 0053 d23e 37f1 ba3e
00000010: b4c9 0d3f c8ac 003f b4e9 f63e f3e4 3e3e
00000020: 720b 1d3f 8f92 bf3e
0.48646185 0.6019876 0.4107895 0.36512157 0.553859 0.50263643 0.48225176 0.18642025
0.6134559 0.37416503

layers.14.running_var f4 [10]
00000000: 8868 033f 4985 ba3e 88f9 8e3e 4989 4e3e
00000010: 8fa5 b03e ed1c cb3f f99f fb3e 91eb 7b3e
00000020: da3c ad3e 541f 3f3f
0.5133138 0.36429814 0.27924752 0.20169558 0.3450131 1.5868202 0.49145487 0.2460158
0.3383549 0.7465718

layers.16.weight f4 [3, 10]
00000000: 3db7 38bd 105d f6bc a468 1dbe 4d61 0dbe
00000010: a6a1 2ebe 9303 373e 2567 bbbd 933d 6d3e
00000020: 52b0 fabd 00e1 503e c5c0 a7bd 574b 453e
00000030: e492 94bd 89a5 63bd 310e cf3d d705 1bbc
00000040: bf7b 02be f9b7 bc3d c4f8 b1bd b12c 9a3d
00000050: dfa4 253e 12cd 833e 868d e8bc 7ca8 1abe
00000060: 1214 3c3e ab11 1abe 7eab 743d 6748 a43d
00000070: 2a59 4a3e b28f e1bd
-0.045096625 -0.030073673 -0.15371948 -0.13806649 -0.17053851 0.17872457 -0.09150533 0.2316802
-0.12240662 0.2039833 -0.08191065 0.19267021 -0.0725458 -0.05557779 0.10110129 -0.009461842
-0.12742518 0.092147775 -0.086900264 0.075280555 0.16176175 0.25742394 -0.028387796 -0.15103334
0.18367031 -0.15045802 0.05973386 0.08021622 0.19760576 -0.11013736

layers.16.bias f4 [3]
00000000: 4e2f 0fbe b551 bf3e bbbe 513e
-0.13982889 0.37367025 0.20482914

grad_avg f4 [10, 15]
00000000: c71c 043b 5732 c43b 8192 3bba d466 73bb
00000010: c150 2539 9487 59bb cae0 5cbb 2b69 533b
00000020: ed97 cfbb 523d 0b3a a2d1 38bb 1c8a a53b
00000030: bf69 10bb 9851 25ba 40fe 23ba 7645 443b
00000040: b3c0 183c 5180 84bb afe3 973a b938 a6bb
00000050: 179b 9bbb ff4e 7fbb 8560 a03a 4b6b 14bb
00000060: 0df8 a239 695d a0bb cfed 0c3c d7ae 3f3a
00000070: f884 32ba aaab 39ba 79a0 e53b c6b4 723c
00000080: afe4 12bc 8308 8dbb 276f 1ebc 4020 a5bb
00000090: ceb6 2a3b 9839 fa3a 8fea 1ebc f6dc 943a
000000a0: 24d6 9b3a 3f53 bab9 3232 1dbb 986c b8b9
000000b0: feda b6b9 6a04 7c3b c2ed 253b f1d0 bd3b
000000c0: 825e a7ba 4897 ec3b 1929 9c3b f0c9 103c
000000d0: 8355 05bc 14e5 873c 7d1d 09bc 9391 3b3c
000000e0: 6a18 bebc ee22 023c c942 f43b 5d87 673b
000000f0: f811 d93b 615f 5fbb 8fd4 f53b e420 c23a
00000100: ec85 0d3c cae9 693b 6d75 c8bb ec41 e0bb
00000110: 7494 233b d19c 32bb b50f 7839 bbc5 6f3b
00000120: 38ae eaba 2f6a a4b9 c596 a3b9 720c 2a3b
00000130: 5955 d33b c9a7 68ba 1ffb 063b ad7c 87ba
00000140: 35b6 9cbc 0232 723b 66bf 843b f981 b5bb
00000150: 7a7e ce3b a096 0bbc 7581 91ba 6f0f 1ebc
00000160: 166c 2bba 1947 2aba 88f1 0f3a f280 86ba
00000170: 7bb9 4ab9 bebe b93a eaec 11ba 6c91 a5ba
00000180: 2f3e 14bc 8138 133a d37d b03a 52f1 41ba
00000190: 324d 813a 5427 8eba 97ee dcb8 411b 3e39
000001a0: 6e93 3b39 ce19 713d e30c b63d 9e6c 94ba
000001b0: 8112 87bc e9af 373b 1dc2 28ba 99c3 043c
000001c0: 4629 223d 38f4 e8bc 51bf 0d3c 94ce ce3d
000001d0: 1e25 483c 8ba7 533c 56cf e9bb 064c cbb9
000001e0: 6383 a8bc 461e 96bc a7ac a43c c575 9f3c
000001f0: d7df 9c3c 5697 593c 6bb8 48bc 5a71 1b3b
00000200: 0cea 843b 41c3 97b9 490b 56bc 0c89 633c
00000210: 37fb 003c e57b c7ba d4c0 c5ba e112 89bb
00000220: 799f 5bbb 6384 4039 6829 b73a 50ed fdb8
00000230: ff29 9fb9 bb1f 4fbc a6dd cfb6 9523 dab7
00000240: c2d8 03ba 0140 39bc 8fe4 453c e47d a539
00000250: e419 feba 1de8 a7ba
0.0020158754 0.0059874463 -0.00071553147 -0.0037140148 0.0001576571 -0.0033192383 -0.003370332 0.003225873
-0.0063352496 0.00053115666 -0.0028201123 0.0050518643 -0.0022035686 -0.0006306409 -0.0006255843 0.0029948629
0.009323287 -0.004043617 0.0011588241 -0.00507268 -0.0047487128 -0.0038956997 0.0012235796 -0.002264696
0.0003108386 -0.004893948 0.00860162 0.0007312125 -0.0006809975 -0.000708277 0.007007655 0.014813608
-0.008965655 -0.004303993 -0.0096700555 -0.005039245 0.0026048901 0.0019090651 -0.009699478 0.0011357355
0.001188938 -0.00035538708 -0.0023986218 -0.00035176123 -0.00034876907 0.003845478 0.0025318717 0.00579273
-0.0012769254 0.0072201826 0.0047656414 0.008837208 -0.008138063 0.016588725 -0.008368847 0.011448282
-0.023205 0.007942898 0.0074542505 0.0035328486 0.0066244565 -0.003408395 0.0075021456 0.0014810828
0.0086378865 0.0035692328 -0.006117514 -0.006843796 0.002496031 -0.0027254114 0.00023656974 0.0036586362
-0.0017904704 -0.0003135963 -0.00031202115 0.002594736 0.006449383 -0.00088750996 0.0020596457 -0.0010336839
-0.019129852 0.0036956077 0.004051137 -0.0055391756 0.0063016983 -0.0085197985 -0.0011101203 -0.009647234
-0.00065392384 -0.000649558 0.0005491008 -0.0010261817 -0.00019333318 0.0014171225 -0.0005566614 -0.001263184
-0.009048029 0.0005616025 0.0013465233 -0.0007398325 0.0009864925 -0.0010845461 -0.00010534858 0.00018129965
0.00017888632 0.0588625 0.08889177 -0.0011323874 -0.016488316 0.0028028435 -0.00064376165 0.008103275
0.039590143 -0.028436765 0.00865157 0.100979954 0.012215881 0.012918363 -0.007135312 -0.0003877582
-0.020570463 -0.018324982 0.020101858 0.019465337 0.019149704 0.01328071 -0.012251 0.0023718686
0.004056221 -0.0002894644 -0.013064214 0.013887655 0.007872394 -0.0015219419 -0.0015087374 -0.0041831587
-0.00335118 0.00018359865 0.0013974132 -0.00012108183 -0.00030358133 -0.0126418425 -6.194884e-06 -2.6004194e-05
-0.0005029553 -0.011306764 0.012078418 0.00031565048 -0.0019386378 -0.0012810264

sqr_avg f4 [10, 15]
00000000: 8ef2 2b39 6332 3f3a e50f 9f3a 7253 a23a
00000010: 9661 a63a f79c 423a af13 e43a bb8d 0c3a
00000020: c985 9d3a 102f 5a39 1d83 973a 8697 223b
00000030: 903c b939 71b9 0937 fa51 0737 7dbf d838
00000040: a50c 113a 85bc 2a3a 4c19 1d3a e90f 3f3a
00000050: a68f 313a 8265 023a 5342 9b3a b392 993a
00000060: 72b2 693a 6659 cf39 8142 583a e32c c13a
00000070: afdc 933a 77c6 3538 86c9 7739 f78d 763a
00000080: d0b8 8f3a 219f 993a 0cd2 943a 3285 803a
00000090: e4b8 b53a 4eed c239 1dec 8b3a bd37 1d39
000000a0: 83d5 0d3a 6dca d53a cf98 1939 463d 4536
000000b0: 0bd3 4136 aaa9 5f3a 305b 073b bb35 f739
000000c0: 88d7 2e39 548c 233a 3b10 f338 cd01 713a
000000d0: 4dbe e43a d91d 123b c183 f63a 0f43 693a
000000e0: cfd1 b03b 40f2 af3a 8eab df39 fc47 9538
000000f0: f2a4 8c3a 5154 853b c179 a73a 21b8 1b3b
00000100: a573 ab3a b354 5f3a 319b 0f3b 94f4 7f3a
00000110: a278 7d3b 3ff5 c539 2842 ac3b 3ace a63b
00000120: ce3c 7d3a ce7c 0838 22ad 8a36 974e a03a
00000130: d4bc c53b 71ff 1a3c 428c c73b 4d81 1e3c
00000140: c582 e33b 9702 0c3c 1310 e93a 79d3 c53b
00000150: 5afb 883a f211 853b 5358 3e3c b451 173b
00000160: 5e56 3938 32e5 3538 e24e 4c39 0ae5 b03a
00000170: 8960 4a3a a2d4 3e3a 24c1 533a 9c44 db39
00000180: b2e5 b53a 87dd c439 f750 993a 29a6 6a39
00000190: 646a 1a3a 00d9 df3a f111 b539 747c 7436
000001a0: ee41 7036 4155 1b3d eb48 3d3d 49fb bd3a
000001b0: 3812 983b 076f dd3a b167 723a 1be1 553c
000001c0: 37c3 083d a2e6 7b3d 2a5f b83c 1d45 943d
000001d0: 63ec 8d3d 6b32 133d 4ba3 373c deaf c239
000001e0: eb22 c63a 28a1 223b 44a0 f63a a346 f43a
000001f0: 03ba ec3a 7211 a23a 1ab0 153b a797 3f3a
00000200: 058b 463b 0cac 7339 0646 6b3b 0cf9 c93a
00000210: 86c3 903b a776 5337 63cf 4f37 a6be 443a
00000220: 9ad4 003a ae4a 203a 16ec 433a e8d4 253a
00000230: 90b4 113a c348 6e3a 3128 2d39 447c 5e39
00000240: 5e69 bf39 de2a af39 4d9b 953a e33c 413a
00000250: 86f7 a339 1138 be37
0.0001639819 0.000729358 0.0012135474 0.0012384488 0.0012693878 0.0007423902 0.0017400886 0.00053616957
0.001201802 0.00020807632 0.001155946 0.0024809553 0.00035331072 8.209013e-06 8.065714e-06 0.0001033535
0.0005533195 0.0006513077 0.0005992844 0.00072884426 0.00067734194 0.0004974232 0.0011845328 0.0011716693
0.0008914835 0.00039548724 0.0008249656 0.0014738109 0.0011280979 4.3338598e-05 0.00023630829 0.00094053097
0.0010965113 0.0011720398 0.0011354103 0.000980532 0.0013864306 0.0003717937 0.0010675226 0.00014993451
0.0005410539 0.0016310938 0.00014648143 2.9390953e-06 2.8882084e-06 0.0008532057 0.0020653717 0.00047151544
0.00016674225 0.0006238867 0.00011590166 0.0009193689 0.0017451734 0.0022295623 0.0018807576 0.0008898237
0.005396105 0.0013423637 0.00042661693 7.118282e-05 0.001073031 0.004068889 0.0012777374 0.0023760872
0.0013080729 0.0008519396 0.002191257 0.0009763923 0.003867664 0.0003775749 0.00525691 0.005090502
0.00096602447 3.254116e-05 4.132876e-06 0.0012230453 0.006034473 0.009460316 0.006089718 0.009674382
0.006943079 0.008545539 0.001778128 0.0060371724 0.0010450885 0.004060977 0.011617738 0.002308947
4.4187873e-05 4.3367218e-05 0.00019484342 0.0013495993 0.00077200733 0.00072796096 0.00080777914 0.00041822053
0.0013877659 0.00037549084 0.0011697103 0.00022377878 0.0005890487 0.0017078221 0.00034536378 3.6431275e-06
3.5801163e-06 0.0379231 0.046212118 0.0014494444 0.0046408437 0.0016894051 0.00092470186 0.013054158
0.033389296 0.061499245 0.022506315 0.07239745 0.06929853 0.035936754 0.011208366 0.00037133595
0.0015116608 0.0024815295 0.0018816073 0.0018636774 0.0018060807 0.0012364818 0.002284056 0.000730867
0.0030295264 0.00023238378 0.0035899892 0.0015409305 0.0044178395 1.2604206e-05 1.2386447e-05 0.00075052155
0.00049144926 0.0006114644 0.0007473839 0.0006325976 0.0005558217 0.0009089822 0.00016513538 0.00021217862
0.00036508864 0.0003341054 0.0011414081 0.00073714386 0.00031274202 2.2675873e-05

grad_avg f4 [10]
00000000: cacb c33b f068 683b 716c 5a3b 3167 63bb
00000010: beb9 423b 5706 cb3b cd63 e0ba d081 bc3c
00000020: 7d42 6c3c bba7 103b
0.0059752213 0.0035462938 0.0033328796 -0.0034698958 0.0029712762 0.006195824 -0.0017119587 0.023011118
0.014420149 0.0022072631

sqr_avg f4 [10]
00000000: 7f2f 413a 3364 be39 5b55 8a39 50ae ac3a
00000010: 2ef4 c539 6cfc 813b 597a ab39 9bb2 583b
00000020: 3a4f 943a 5449 8039
0.0007369443 0.00036314278 0.00026385006 0.0013174508 0.00037756696 0.0039668586 0.00032706818 0.0033065442
0.0011315115 0.00024468696

grad_avg f4 [10]
00000000: ee3e bdb9 3113 ecba e562 1f3b 004b 5139
00000010: 1fcf 95ba cfcd 3fba cc32 853b c1b6 abb9
00000020: c580 45ba 2147 b8ba
-0.00036095775 -0.001801109 0.002432042 0.00019959733 -0.0011429525 -0.00073167396 0.0040648934 -0.00032751824
-0.0007534142 -0.0014059284

sqr_avg f4 [10]
00000000: da2e 7739 994c 9339 b0df 6339 2d15 0339
00000010: c64f a439 df74 3439 cfab 9239 25bb 9b39
00000020: 4b9b 1839 55ba ac39
0.00023573209 0.00028095095 0.00021731737 0.00012501022 0.00031339953 0.00017209676 0.00027975297 0.00029703337
0.00014553701 0.00032945225

grad_avg f4 [10]
00000000: be11 6d3b fc16 f1ba 7a28 cb39 d867 8cb9
00000010: 7374 9bba 05df 2c3b 96fd 36ba a899 f139
00000020: f586 58b9 cf77 88bb
0.0036173905 -0.0018393691 0.00038749335 -0.0002678025 -0.0011860266 0.0026378047 -0.0006980536 0.00046081585
-0.0002064964 -0.004164673

sqr_avg f4 [10]
00000000: 8fad 9539 994e 6739 efcb 4939 9a4a 0f39
00000010: 1950 2a3a 6d8b a739 458d 1339 c19f 573a
00000020: 4f40 4039 bf73 8f39
0.00028548806 0.00022059157 0.00019244825 0.00013665334 0.0006496921 0.00031956602 0.0001407164 0.00082254043
0.00018334504 0.00027361323

grad_avg f4 [15, 10]
00000000: 9432 89ba 82ed cabb 784f 563b 5b02 37bb
00000010: 8d8a 043b d158 953a a498 703b 5feb 023b
00000020: 7732 9ebb 53e1 03bb 4af4 c7ba 02cf ae3a
00000030: 12fd 873a c239 063b 1249 103a 79a0 d039
00000040: d09e 96b9 8466 223b e393 23ba 119c e03a
00000050: b25f 87bb a6a8 08ba f745 0f3c d29f 05b9
00000060: e2ed 30bb 2ad3 a9bb 4b73 35bb b98e 97b9
00000070: 84a3 bdbb 8623 e53a 2b1c 16b9 a1ba 6bbb
00000080: 1c4a 55bb 1063 fcba 73da 7f3b ee30 e3ba
00000090: 8452 acbb d1fb 70bb 7d03 943b 6a0d 81bb
000000a0: f0f2 b7ba eea6 4d3a ec16 d2ba 971a b0bb
000000b0: 2be6 d13a ba74 6338 9d06 023a 0641 9f39
000000c0: a8f2 d0bb a981 baba d8d0 15bb e8fc 10bc
000000d0: d224 93bb 086d 00bb d008 02bb ea18 3ebb
000000e0: 2dc9 1abc 8d05 24bb 0a37 d63a 7472 873a
000000f0: b379 903a fdeb 3e3b d06b 0a3a 5c32 22bc
00000100: 8f0a 2abb 1371 aebb 2d6c 233b 5dc0 15bb
00000110: e11e cebb 23f6 4bbb 180a bdba 1a3d dc3a
00000120: 8a26 38bb 379d d8bb 3960 933b 07e1 813a
00000130: 2a37 04bc 3bd6 0abc 52a7 f83b d230 493b
00000140: a2a4 083a fa93 703b 19ce a23b 5790 67ba
00000150: 615e 77ba 5da6 ac3a 615e 1f3b 030b 99bb
00000160: 6be1 78bb cdab 383b 3b9a 84bb 7878 84bb
00000170: c869 fe3a 511a bf3b 5db6 f2ba 1d58 24bb
00000180: 583f b6ba 9d55 223b 9b61 5dbb 1f3b 713a
00000190: d1bc f43b 40fd b33b 0e5f 7d3b fb6a b83a
000001a0: bfeb 0a3b 1575 77ba 6afd 90b8 c386 bfba
000001b0: cd8b 19ba d11e bdb8 ca3e 58bb 59df 45bb
000001c0: 55a3 2eba 1076 003b ab7f 61bb 3039 84ba
000001d0: 888b 48bb 4dca a739 9d28 8f39 975e 08ba
000001e0: 3aa8 763b 14d3 beb9 0b2b 183c 5316 c13a
000001f0: 3a91 c13b 24e0 f43a 984b 353c 610d 323b
00000200: 5f0f 86bb 21aa 08bc bf4f 8b3a 23ee aa3a
00000210: aa20 0c3b 952c 83bb 55bd ef3a 2cff 05ba
00000220: cdbc 423b bcee 00ba 4864 5ebb 45bc 06bb
00000230: 9ffb 8cba f1c1 9abb d42d feba 055f bd39
00000240: 8349 27ba 8cde 03bb 1e41 d8ba 3652 973a
00000250: bca9 38bb dff0 f739
-0.0010467344 -0.006192864 0.0032701176 -0.0027924988 0.0020224184 0.0011394267 0.0036712075 0.0019976718
-0.004827793 -0.0020123317 -0.0015255299 0.001333684 0.0010375103 0.0020481204 0.00055040524 0.00039792413
-0.00028728554 0.0024780342 -0.00062399934 0.0017136355 -0.004131281 -0.0005213119 0.008744708 -0.00012743406
-0.0026997258 -0.0051826434 -0.0027687128 -0.000289073 -0.005787315 0.00174819 -0.00014315608 -0.0035969394
-0.0032545393 -0.0019255597 0.0039040118 -0.0017333308 -0.00525886 -0.0036771188 0.0045170174 -0.0039383667
-0.0014034193 0.0007845004 -0.001602856 -0.0053742635 0.001601403 5.4229728e-05 0.0004960092 0.0003037529
-0.006376583 -0.0014229316 -0.0022860076 -0.00884936 -0.0044904733 -0.0019596238 -0.0019841678 -0.002900655
-0.009447378 -0.0025027723 0.0016343307 0.0010333792 0.0011022597 0.002913236 0.00052803475 -0.009899702
-0.0025946235 -0.005323538 0.0024936304 -0.0022850253 -0.006290302 -0.003112205 -0.0014422564 0.0016802878
-0.0028099143 -0.0066105383 0.0044975546 0.0009908982 -0.008069793 -0.008473928 0.0075883055 0.0030699265
0.00052125205 0.0036709295 0.0049684164 -0.0008833459 -0.0009436366 0.0013172139 0.0024317729 -0.004670502
-0.0037976156 0.0028178573 -0.004046706 -0.0040426813 0.0019410187 0.0058319946 -0.0018517483 -0.0025076934
-0.0013904376 0.0024770268 -0.0033780101 0.000920223 0.0074687977 0.0054928362 0.0038661393 0.0014069969
0.0021197645 -0.0009439749 -6.913657e-05 -0.0014612306 -0.0005857319 -9.017962e-05 -0.003299641 -0.003019294
-0.00066619116 0.001960162 -0.0034408371 -0.0010087844 -0.0030600745 0.00032003448 0.00027305345 -0.0005202083
0.0037636892 -0.0003639689 0.009287606 0.0014731385 0.005907205 0.0018682522 0.011065386 0.002716862
-0.004091188 -0.008341343 0.0010628625 0.0013040941 0.0021381774 -0.0040031173 0.0018290678 -0.0005111571
0.0029714585 -0.00049183867 -0.0033934284 -0.0020558995 -0.0010756141 -0.0047228266 -0.001939232 0.00036119684
-0.00063814985 -0.0020121662 -0.0016498899 0.0011544887 -0.0028177341 0.00047290974

sqr_avg f4 [15, 10]
00000000: 2f2a af39 b69b 093a acdc 063a c474 fa38
00000010: e525 c339 6b57 7439 39e3 f739 609c 8939
00000020: 5686 a339 a4e0 9b39 9aa2 2139 3115 1e39
00000030: 1166 2239 76f9 2539 1b82 0139 ca19 eb38
00000040: fe1f 0b39 be2e 4e39 d583 2839 ef72 1f39
00000050: c76c b239 d68f 8c39 b085 7f3a ec20 ef39
00000060: 32e0 223a 774b 013a a93d 733a bfb1 193a
00000070: 47df 273a b3c6 da39 1204 ab39 e1c0 063a
00000080: 6eab 4e3a 3c51 5b3a 2d0a 8939 72e2 7739
00000090: bd47 eb39 b742 533a e593 c039 f6c7 063a
000000a0: f172 df39 fa6d 4b3a 0cc5 df39 f1e7 a339
000000b0: e05d 063a 8d1c e639 47a5 213a c401 c339
000000c0: d86b 023a 2610 163a 426a 083a cab9 543a
000000d0: 6550 533a 9d50 283b 47be e239 69bd 7b39
000000e0: ea3d a03a 8d08 df39 081a 8639 b1b2 6d3a
000000f0: 88d6 473a 4697 163a df66 933a c974 9b3a
00000100: 8e38 f239 a142 383a d626 8c3a 3da4 d139
00000110: cbd3 773a 0735 fa39 de27 b138 e226 9839
00000120: 5db0 d739 723a 3c3a 435f 7f39 55e9 1f39
00000130: ba5a b939 2177 fb39 57b1 a139 9cbe f139
00000140: 335f 6a39 0929 b139 9cc9 8639 9c4b 4f39
00000150: d687 9439 adfc 1f39 84ba a639 c30e 7c39
00000160: 466a 8a39 fb9f 3139 49ab b238 4015 fd38
00000170: abf2 bf38 dc09 9939 c2dc a738 a76d 8938
00000180: af7a cd38 ca2c c538 9af1 2338 b0cb ba38
00000190: aea0 9d3a 60c7 b23a 8155 1f3b bbeb 0d3b
000001a0: 52bb a23a 89e9 a93a 723e 103b 709e 823a
000001b0: 5776 893a cd81 2a3a ba9e 5f39 bd95 8139
000001c0: d99b 8639 46d0 d039 df03 d439 6cb4 8639
000001d0: 1d09 8c39 6cab a239 0804 0939 5f27 7739
000001e0: 543d 153a 3b11 443a d9f9 9a3a 203a 2e3a
000001f0: a9dc 533a 4f27 213a 176d 563a 9cf7 163a
00000200: d6fb 5f3a 1ef4 a43a 4ceb 3539 ca99 8539
00000210: ac2b 7639 3815 b639 bc6c a339 106c 6839
00000220: 57a9 6c39 e48e 2f39 5052 7d39 e9ad bc39
00000230: e981 423a 79e6 b83a ceca 673a 9aa8 a439
00000240: 00d9 9c3a 9dbd 893a 2027 653a 432f 6d3a
00000250: 546b 0b3a dd0e 2a3a
0.0003341003 0.0005249338 0.0005144577 0.00011942678 0.00037221532 0.00023302219 0.00047280805 0.00026247185
0.0003118987 0.00029731274 0.0001541473 0.00015075949 0.00015487547 0.00015828558 0.00012350867 0.00011210477
0.00013267991 0.00019663104 0.0001607084 0.00015206238 0.0003403185 0.00026810047 0.0009747399 0.0004561016
0.0006213217 0.00049322046 0.00092789024 0.0005862973 0.00064038154 0.00041728243 0.00032618694 0.00051404355
0.00078838214 0.0008366292 0.00026138258 0.00023640113 0.00044876142 0.00080589525 0.00036731284 0.0005141491
0.00042619513 0.0007760223 0.00042680686 0.00031262593 0.0005125683 0.0004389029 0.0006166291 0.00037194614
0.00049751764 0.0005724452 0.0005203822 0.0008114843 0.0008060991 0.0025682815 0.00043247847 0.00024007786
0.0012225483 0.00042540245 0.00025577866 0.00090674596 0.0007623215 0.00057445874 0.0011245868 0.0011860366
0.00046199973 0.00070289714 0.0010692726 0.00039985953 0.0009453862 0.00047723224 8.4474435e-05 0.0002902067
0.00041139396 0.000718034 0.00024354183 0.00015250345 0.00035353546 0.0004796321 0.00030840441 0.00046109117
0.00022351443 0.00033790644 0.00025708682 0.00019769225 0.00028329965 0.0001525755 0.00031800952 0.00024038092
0.0002640059 0.00016939633 8.519606e-05 0.00012067938 9.15279e-05 0.0002918978 8.0043e-05 6.5530934e-05
9.798013e-05 9.4020346e-05 3.9087237e-05 8.907111e-05 0.0012026036 0.0013639741 0.002431244 0.00216554
0.0012415445 0.0012963276 0.0022009877 0.0009965431 0.0010487539 0.0006504327 0.00021326068 0.0002471636
0.00025674587 0.00039828027 0.00040438675 0.00025692896 0.0002670967 0.00031026767 0.0001306684 0.00023570422
0.00056930375 0.0007479374 0.0011823728 0.00066462345 0.0008081892 0.000614752 0.0008179708 0.00057589426
0.00085443014 0.001258496 0.0001734916 0.0002548232 0.00023476657 0.00034729554 0.00031170796 0.000221655
0.00022569798 0.00016742531 0.00024158624 0.00035987727 0.0007419871 0.0014106772 0.0008842171 0.00031406136
0.0011966527 0.001050878 0.0008741487 0.0009047875 0.00053184223 0.00064872

grad_avg f4 [15]
00000000: 49ce 3c3a ae87 09bb 949c 83bb 0770 c43a
00000010: a888 4bbb 5c2e 983a 8d09 8d3b 7028 dc3a
00000020: 887d 88ba bd5c e13a fb4f 8abb dadc c038
00000030: 79fa 53bb e53f 48bb baf1 a3b9
0.000720237 -0.0020985412 -0.0040164683 0.0014987 -0.0031056795 0.0011610496 0.004304117 0.0016796719
-0.0010413388 0.0017193776 -0.00422096 9.19641e-05 -0.0032345338 -0.0030555662 -0.00031269883

sqr_avg f4 [15]
00000000: 711f e138 78fa a738 29fe df38 ad7b 4d39
00000010: 6a93 fe38 3a9a 8e39 0143 cc38 fca6 4439
00000020: b5ee dd38 0f44 cd37 cd8c 9139 dd2a 6638
00000030: 0c9b 8239 c011 bd38 e2d8 c439
0.000107346925 8.009834e-05 0.0001068081 0.00019596396 0.00012139122 0.00027199258 9.7399585e-05 0.00018754223
0.00010582564 2.4469597e-05 0.0002776146 5.4876193e-05 0.0002491105 9.0155285e-05 0.00037545623

grad_avg f4 [15]
00000000: 8341 e8ba 105e 10ba 9dbd 663a 7cbb 983a
00000010: 2439 71ba fe50 8aba 8a39 003a 620d a83a
00000020: 0802 673b cea8 403a 1a34 bbba 0ed2 213b
00000030: 7247 a4ba 6a18 a0b9 504d 003b
-0.0017719719 -0.00055071805 0.00088020583 0.0011652554 -0.0009201935 -0.0010552702 0.00048913865 0.0012821371
0.0035249013 0.00073493726 -0.0014282495 0.0024691853 -0.0012533499 -0.00030535768 0.0019577332

sqr_avg f4 [15]
00000000: a759 b338 dc8c 3e38 c04e d838 2dab c338
00000010: 4046 2a38 7400 c638 86ac 8738 0864 c538
00000020: ae36 9538 69bb f037 7968 fa38 a868 9238
00000030: 7580 ce38 c6d9 2638 dd77 3d38
8.552084e-05 4.5430716e-05 0.00010314351 9.3302086e-05 4.0596584e-05 9.44146e-05 6.4694366e-05 9.412324e-05
7.1150585e-05 2.86975e-05 0.000119403885 6.981316e-05 9.8467724e-05 3.97803e-05 4.5172743e-05

grad_avg f4 [15]
00000000: 2187 0a3a 4a25 8bba 9dd2 47bb 2464 74ba
00000010: ebf3 60bb 4d60 6eba 1a25 07bb 5ef6 b0b9
00000020: 9c57 93bb 3448 253a abaa 55ba 1a2b 9d39
00000030: f67b 89ba 4edf 0cbb d298 ed3a
0.0005284418 -0.0010615971 -0.0030490526 -0.00093227834 -0.0034325074 -0.00090933294 -0.002062148 -0.00033752894
-0.004496528 0.00063050096 -0.00081507367 0.00029977487 -0.0010489214 -0.0021495405 0.0018127209

sqr_avg f4 [15]
00000000: e293 0939 155b ba38 78ce 1939 bb9e dc38
00000010: 2e97 a738 728e 6b39 6325 f538 ef3e cb38
00000020: 55f0 c838 74ce 0838 3ab1 5b39 e03a 8938
00000030: 090a 8139 4350 d638 4715 9238
0.00013120429 8.8861365e-05 0.00014668133 0.00010519983 7.99134e-05 0.00022464411 0.00011689474 9.6915166e-05
9.5815085e-05 3.26172e-05 0.0002095149 6.5436354e-05 0.00024612274 0.00010219265 6.965786e-05
